checkpoints/best_multitask_lstm.pt (torch, 878715 bytes, 15 tensors)

lstm.weight_ih_l0 f4 [512, 5]
000000 5e 1b 8d 39 bd 87 a8 b9 ed dc 07 3a 24 74 cd b9
       0.00026914006 -0.0003214459 0.0005182762 -0.00039187178
000010 d6 cd ca 3a 04 4a a2 3b b2 72 e0 3c 45 c8 85 3d
       0.0015472721 0.004952671 0.027398441 0.06532339
000020 f7 63 08 bd 04 bf c0 3b b9 71 1d bb 26 da 61 ba
       -0.03329846 0.005882146 -0.0024024083 -0.00086155755
000030 7b 12 c9 3b fb 5d 97 38 19 20 65 bc a1 a1 9c b8
       0.0061362362 7.217746e-05 -0.013984703 -7.4687654e-05
000040 dc 16 01 ba cf 49 8b 38 81 3c 2e b9 7b 37 f3 bb
       -0.0004924366 6.6417844e-05 -0.00016616473 -0.0074223853
000050 a2 1e 28 ba b9 89 3a 3a 17 17 2f bc 07 8a 95 3c
       -0.0006413256 0.0007115859 -0.010686657 0.018254293
000060 34 6d 1d ba 07 55 94 b9 70 69 f4 37 36 a5 c7 38
       -0.0006005347 -0.0002829211 2.9136165e-05 9.5198324e-05
000070 f9 29 a0 b9 73 c5 d5 38 25 f2 1a 3c 2b ce 95 3c
       -0.0003054885 0.00010193409 0.009457146 0.018286785
000080 38 d3 95 b9 cb fb dd b9 c8 4b 90 b6 03 dd 90 3a
       -0.00028576865 -0.00042340005 -4.3003565e-06 0.0011052195
000090 02 7b 87 38 ad ac 93 b9 65 e5 e6 bb 83 5b 63 3b
       6.4602136e-05 -0.00028166678 -0.007046389 0.0034691996
0000a0 88 1e 7a bb 2b b8 4f bb 8e c2 4e bb 32 49 c6 ba
       -0.003816517 -0.0031695466 -0.003154907 -0.0015128015
0000b0 f6 c7 50 bb 7e 09 0b 38 46 d9 72 b7 39 a2 be 3a
       -0.0031857467 3.3149023e-05 -1.4474912e-05 0.0014544196
0000c0 28 29 11 3a 0c f6 46 bb a5 9a 87 bc 77 ef 8d b9
       0.0005537444 -0.0030359058 -0.016553232 -0.0002707203
0000d0 6d 51 80 3c 33 e2 69 3c 72 9e 90 bb d9 0e 10 3c
       0.015663827 0.0142751215 -0.0044134194 0.008792602
0000e0 f6 ba ab 39 14 ea 47 bc 55 ae 14 b8 46 44 4f b8
       0.00032754958 -0.012201805 -3.544831e-05 -4.941623e-05
0000f0 82 da 90 39 c6 05 14 ba 03 86 fc 38 3a db 28 3a
       0.0002762862 -0.0005646612 0.00012041258 0.0006441359
000100 39 f7 0a 3a b0 cc e1 bb 6e f9 17 3a a6 a0 d8 bb
       0.0005301121 -0.0068908557 0.0005797361 -0.0066109477
000110 7c e6 45 bc 46 58 ab 38 4a 14 85 bb 32 5e c1 b9
       -0.012078878 8.1703576e-05 -0.0040612565 -0.0003688201
000120 55 5a 92 39 02 b0 21 ba d4 86 99 b7 17 e1 2e 37
       0.00027914593 -0.000616789 -1.8301806e-05 1.0423616e-05
000130 b5 f4 c2 b7 86 c3 21 3c b1 83 63 39 62 d8 34 3c
       -2.3240553e-05 0.009873277 0.00021697466 0.011037918
000140 04 e3 51 38 42 85 28 ba cf 87 f1 3b 88 d2 34 b8
       5.0040908e-05 -0.00064285484 0.007370926 -4.3111417e-05
000150 9d 2f 95 3b 7c 61 9f 38 08 f7 67 bc a1 71 04 bc
       0.004552795 7.599869e-05 -0.014158018 -0.008083732
000160 ae 60 2f ba 93 3c 77 bb bb f3 95 bc 21 da 5f 39
       -0.00066901266 -0.0037725314 -0.018304696 0.00021348197
000170 3b 8d f8 ba 63 ee 88 3c ec ec d5 3b 56 79 4f 37
       -0.0018962988 0.016715234 0.0065284874 1.2366412e-05
000180 f6 8c 47 bc 67 03 0d bc 0f 8d 8c bc ee b5 14 3c
       -0.012179604 -0.008606768 -0.017157106 0.009076579
000190 ee 36 18 bb 04 eb 95 bc 30 29 f1 3b e7 22 f3 bb
       -0.00232261 -0.01830054 0.0073596463 -0.007419932
0001a0 a0 fa 76 bb ed 03 04 b9 46 58 72 bb b5 b1 c0 37
       -0.0037686005 -0.00012589963 -0.0036978885 2.2970935e-05
0001b0 ec 0c f2 b7 f4 6d 0e b9 44 58 b7 b7 da 6f 81 39
       -2.8854665e-05 -0.00013583136 -2.1856402e-05 0.00024688133
0001c0 58 27 42 39 4e 76 b7 bb 14 86 89 bc 82 3f 5e 3c
       0.00018515938 -0.00559882 -0.016787566 0.013564946
0001d0 e9 b4 01 bc 99 86 60 b9 29 a3 7a bb 1b 87 d7 3b
       -0.0079166675 -0.00021412446 -0.0038244224 0.006577385
0001e0 af 2d 1d bb 89 b5 fb 3a 6f 19 88 bc 97 42 5a 39
       -0.0023983528 0.0019203882 -0.01661369 0.00020814907
0001f0 47 d7 94 ba 43 a7 92 39 67 48 4b 3a 94 08 81 39
       -0.0011355662 0.0002797191 0.0007754624 0.0002461119
000200 c0 49 23 35 df a6 91 3c 72 fa 81 3b c6 3e da 38
       6.082955e-07 0.017779766 0.003966623 0.000104067425
000210 47 9a 23 3c 0e 5b 8a bc 37 c0 09 bc 33 3a 49 3c
       0.009985513 -0.016889121 -0.008407644 0.012281942
000220 57 02 7d b8 0f d7 c5 39 bc a3 8d bc 24 40 c8 3a
       -6.032208e-05 0.00037735 -0.017289989 0.0015277904
000230 fa d6 e7 b8 d2 e5 73 bc 60 7a 56 36 eb 5f 44 b7
       -0.00011054981 -0.014886336 3.1959717e-06 -1.1704843e-05
000240 0c 2a 37 b9 4c b1 dc b9 47 48 88 39 7d 2f e7 3b
       -0.00017467904 -0.00042093766 0.00025993792 0.0070552216
000250 40 7a e8 39 c4 d6 07 3a 3c 36 a0 3c 25 74 8c 3d
       0.00044341572 0.0005181844 0.019557111 0.0685809
000260 16 74 2a bd 64 73 c5 3b 26 0f ae 3b 42 84 03 bc
       -0.041614614 0.0060257185 0.0053118644 -0.008027138
000270 80 25 7f 3c 8e ae fe bb 62 20 0a ba 83 64 97 bc
       0.015572906 -0.0077722734 -0.00052691076 -0.018480545
000280 88 94 04 3a 4b 41 81 bc 02 1f 9f ba f2 6e e2 bb
       0.0005057533 -0.015778204 -0.0012139978 -0.0069101984
000290 58 3c 2f b8 22 06 b7 3b 5b c7 4e b9 7e ba 06 38
       -4.177945e-05 0.005585448 -0.00019719957 3.2121774e-05
0002a0 6d 85 aa b8 45 f5 eb bb b4 16 2a 3a ec 37 9a b8
       -8.131084e-05 -0.0072008693 0.00064883684 -7.3537085e-05
0002b0 6c 4a 1f ba cf c2 62 b7 15 cc 49 b9 8a db 86 3c
       -0.00060764584 -1.3516007e-05 -0.0001924488 0.016462106
0002c0 7f c4 7f 37 e5 07 84 38 9c 87 34 38 21 a1 0a 39
       1.5244935e-05 6.295721e-05 4.304164e-05 0.00013220731
0002d0 60 61 12 3c 36 d7 f4 3b 81 07 d6 3b 73 17 0e 3c
       0.008934349 0.007471944 0.0065316563 0.008672583
0002e0 fd 97 fc 3b 81 d6 d7 38 97 98 8f 39 fd ee de bb
       0.007708548 0.000102919534 0.00027388774 -0.006803392
0002f0 cf 37 d8 b9 30 21 ac b9 84 ae 9b 38 57 a0 13 3a
       -0.0004124031 -0.00032831123 7.423482e-05 0.00056314975
000300 ed d6 09 bc 20 23 b6 39 6c 00 87 bc 90 3f 1b b7
       -0.008413059 0.00034739915 -0.016479693 -9.253519e-06
000310 de 02 df 38 2d ce 8b 39 1f c5 91 bc 2f 38 a4 38
       0.00010634003 0.0002666576 -0.01779419 7.8305944e-05
000320 22 87 13 3c 6d f3 9e bc 1b 19 e7 3b bb 8d be 3b
       0.009004386 -0.019403184 0.0070525534 0.0058152354
000330 97 79 f6 3b f6 ff 34 bc a4 47 c6 b9 e1 ae 26 ba
       0.007521819 -0.011047354 -0.0003781888 -0.00063584564
000340 d3 f1 29 3a 5c ae 53 3c c8 e0 27 ba 47 d0 29 39
       0.0006482873 0.0129199885 -0.00064040394 0.00016194685
000350 e3 48 18 3a 35 a8 d3 bb 6e 5d b2 3b fd 04 cf 39
       0.0005809201 -0.006459261 0.0054432666 0.00039485833
000360 4c a9 e5 38 a1 4e 8d ba ee dc 77 39 b4 ac df bb
       0.00010951105 -0.001078088 0.00023638058 -0.0068260077
000370 d0 26 cf bb bb 50 76 b7 04 05 ac b5 f7 de ea 38
       -0.0063217655 -1.4681539e-05 -1.2816458e-06 0.0001119952
000380 4c 74 08 ba 0a ff 2e b9 40 6e c9 b5 b5 53 1d ba
       -0.0005205318 -0.00016688943 -1.5007754e-06 -0.0006001548
000390 ab bf 32 3c 47 25 91 bc f6 0b a2 bb c3 4b a2 38
       0.010909955 -0.01771797 -0.0049452735 7.738874e-05
0003a0 65 b8 14 3c b5 78 1d b9 bf 6e 18 ba 7f d4 23 3a
       0.009077166 -0.00015017654 -0.00058148423 0.0006249621
0003b0 a0 eb 52 36 89 85 62 bb 02 a0 28 3a c7 79 01 ba
       3.142959e-06 -0.0034564456 0.00064325344 -0.0004939106
0003c0 87 9c 44 39 e9 a1 eb bb ad 7f 8f 3c 3e 3c 1f ba
       0.00018750328 -0.007190932 0.017516935 -0.00060743454
0003d0 c7 b2 85 bc a6 a3 0b 3c a0 10 da 38 82 8f ea 39
       -0.0163206 0.008522904 0.00010398147 0.0004473888
0003e0 74 c5 cd 39 66 5a 8d 3c 21 b2 6c b8 b7 f4 0b bc
       0.0003924776 0.01725502 -5.643268e-05 -0.008542231
0003f0 a8 80 81 b7 1f dd 83 37 1d 20 19 b9 2c 31 ad 3b
       -1.5437909e-05 1.5719384e-05 -0.0001460318 0.0052854028

lstm.weight_hh_l0 f4 [512, 128]
000000 74 2e 0a 38 bc b2 f9 38 53 21 68 3b b9 a4 8b 39
       3.2945027e-05 0.00011906537 0.0035420253 0.00026634874
000010 4f ce 16 b9 67 c9 5e bb f9 0a 17 3c 27 a8 2a ba
       -0.0001438197 -0.0033994557 0.009218925 -0.0006510042
000020 42 e2 18 3c ad 58 7d ba fc da 6e 3c 23 49 24 3a
       0.009331288 -0.0009664398 0.014578577 0.0006267002
000030 7d 0d 95 b9 8d b5 40 3c e4 20 23 ba 75 f5 d8 b8
       -0.00028429544 0.011762035 -0.00062228576 -0.000103454026
000040 39 87 b4 38 8a 69 ce 37 91 f3 ef 3b 88 94 50 3b
       8.608256e-05 2.460626e-05 0.0073227366 0.0031826813
000050 74 cb 8a 3a 76 82 90 ba b0 7c e1 38 dc f5 5f 38
       0.0010589198 -0.0011025209 0.00010752061 5.3396318e-05
000060 5f 71 5e 3c 6f ad 79 3c 4b 39 12 3a d1 0b 84 39
       0.013576834 0.015239104 0.00055779953 0.00025185806
000070 4b ba a9 b9 a7 25 4a 3c 32 83 ed 3b 87 25 90 bc
       -0.0003237299 0.012338079 0.0072483057 -0.01759602
000080 e0 bd 6d b8 f5 20 2a ba fc 53 37 39 73 c1 93 b9
       -5.6682038e-05 -0.00064898963 0.00017483527 -0.00028182156
000090 ac 74 de 38 6d ae cc 39 3a 74 f1 3a d9 be d2 b9
       0.00010607517 0.0003903987 0.0018421479 -0.00040196514
0000a0 80 92 57 bc 3c 33 2a ba d7 91 25 3a 88 5f 7c b6
       -0.013157487 -0.000649262 0.00063159823 -3.7606533e-06
0000b0 dd 18 84 bc d0 c2 9d 38 82 75 ae bb 05 2d 40 3c
       -0.016125137 7.52263e-05 -0.0053240666 0.0117294835
0000c0 f5 ee 2d b9 ba 95 f8 bb 54 bc 94 bc 70 6b 87 b6
       -0.00016587584 -0.007586208 -0.018156208 -4.035821e-06
0000d0 cf 5e 25 ba 4e ce 1c bc 4d 96 80 b9 3f a2 91 39
       -0.0006308378 -0.009570671 -0.00024526045 0.00027777438
0000e0 0d da 32 3c bc a9 96 3a c9 fe 12 bc 62 a5 c1 bb
       0.010916245 0.0011494677 -0.008971878 -0.0059096077
0000f0 ee b5 77 3b c5 c6 be 3a ed f1 88 3c e8 86 cf 37
       0.0037797648 0.0014555088 0.016716922 2.4739144e-05
000100 e5 1b 47 bc c9 79 85 bb 45 83 8c bc c5 25 04 ba
       -0.012152647 -0.004073356 -0.017152438 -0.00050410285
000110 cf 40 c1 39 3e 1f 0e 3c d1 0c 11 39 d2 86 55 3c
       0.00036860115 0.008674441 0.00013833052 0.013032632
000120 3c da d8 3a 8c bc 26 ba c6 3e 6b bc 5c c7 ff 3b
       0.0016544531 -0.0006360493 -0.014358228 0.007805748
000130 ce fe e9 b8 81 d7 02 39 68 44 20 38 7f 36 52 bc
       -0.00011157767 0.00012478048 3.821068e-05 -0.012830376
000140 4b 08 fb bb bb da 28 38 40 1f ae 3b 9f cb 80 bc
       -0.0076609007 4.025803e-05 0.005313784 -0.015722094
000150 45 0d 95 3c f3 ee 20 39 ec 7f 3d 37 f2 78 29 b9
       0.018194804 0.00015347805 1.1295062e-05 -0.00016162152
000160 2a b7 52 3a 8c 12 f9 b9 d8 d0 ae 3b 84 a1 92 b9
       0.0008038158 -0.000475068 0.0053349547 -0.0002796763
000170 0f 93 34 3c d2 42 2d b7 dd 27 19 3a 84 8e 1e bb
       0.01102139 -1.0327161e-05 0.0005842427 -0.0024193833
000180 f0 75 30 38 86 f8 f1 bb bc bf f0 b7 df 9b 6c 3a
       4.2071508e-05 -0.0073843626 -2.8699513e-05 0.0009025912
000190 a0 71 ca bb 88 07 27 3a 94 a9 b1 ba 8d a7 09 bc
       -0.006178096 0.00063716667 -0.0013554567 -0.008401764
0001a0 f3 3c 1a ba b2 57 ea 3b 24 f9 ea b9 f2 a3 d8 bb
       -0.0005883716 0.0071515674 -0.00044817582 -0.0066113407
0001b0 ed 72 02 ba 3d 78 81 38 aa 07 60 3c a4 ea 16 3a
       -0.0004976232 6.1735955e-05 0.013673702 0.000575701
0001c0 8e a0 cc 3b 45 e2 3d 3c 20 7f d6 b9 ee 55 35 3c
       0.0062447255 0.011589591 -0.00040911976 0.0110678505
0001d0 bc e4 9b b9 28 8e 34 37 e5 35 d4 38 9f f8 e9 37
       -0.00029734324 1.0761934e-05 0.000101189864 2.7891538e-05
0001e0 65 e2 24 3a 4a 82 1f bb 42 18 d6 b8 a4 33 16 3a
       0.0006289839 -0.0024339133 -0.000102088336 0.0005729741
0001f0 24 a2 1b 3c 43 a9 c4 3b d0 6d 81 b9 2e c2 97 bb
       0.009499107 0.006001623 -0.00024686614 -0.0046313023
000200 3c 3e 93 39 d7 37 8c 3c 65 46 cf bb 57 ce bb 39
       0.00028084393 0.01711647 -0.0063255304 0.00035821155
000210 e0 62 f7 36 3f 13 d2 3a 73 2d 96 bc e5 20 b8 39
       7.372684e-06 0.0016027464 -0.018332219 0.00035119723
000220 07 fe b2 3a 1f 35 76 bc e9 93 f8 3b cf 77 fd 39
       0.0013656028 -0.0150273135 0.0075859916 0.00048345185
000230 c6 e6 5d 3c c1 c5 29 3a 72 b0 89 3b f6 4a 12 3a
       0.01354379 0.0006476306 0.004201942 0.0005580628
000240 f2 99 55 38 39 cb c5 b8 d3 b3 9f bb a0 f9 b8 b4
       5.092653e-05 -9.431545e-05 -0.0048737316 -3.4454297e-07
000250 0a 1d 0c 38 cb ea 03 ba c8 9a 6e 3c 54 03 de b9
       3.3405646e-05 -0.00050322403 0.01456327 -0.0004234562
000260 49 1f 68 3b 58 ab a1 bb 4e a3 42 3c 55 1e af b9
       0.0035419038 -0.004933756 0.011879755 -0.000334012
000270 ab 2b 86 ba eb 7a d9 bb 82 93 c0 37 84 5d 8a b9
       -0.0010236403 -0.0066369674 2.2956872e-05 -0.00026391086
000280 8c ce 73 38 49 0c 25 3a 50 32 bb bb 96 bd 1a b7
       5.8128076e-05 0.0006296081 -0.005712785 -9.223257e-06
000290 b3 df 31 bc 13 35 c4 b9 7c 8e 22 b8 35 a4 05 3c
       -0.010856557 -0.00037423577 -3.875651e-05 0.008156826
0002a0 9f dd 88 ba a6 e7 4b 3b 46 cc 6f bb 18 12 8e b8
       -0.0010442025 0.0031113415 -0.0036590262 -6.774458e-05
0002b0 17 bc 24 3c ae cb 6f 37 e8 94 97 bc 58 ce cb 3b
       0.01005461 1.4292933e-05 -0.018503621 0.0062196665
0002c0 e5 8f 68 39 d9 64 94 b9 74 11 54 ba 36 19 19 b7
       0.00022178849 -0.00028303897 -0.0008089759 -9.1253805e-06
0002d0 6b 9f 07 3a e2 c3 0f 3c 12 05 d9 3b 9c cb 89 b9
       0.00051735964 0.008774729 0.006622919 -0.00026282377
0002e0 36 5a 27 ba c0 6a 17 38 08 4f 24 bc be a1 55 3c
       -0.0006383987 3.6100624e-05 -0.010028608 0.013039051
0002f0 94 6e 6b bc 50 14 7b 37 90 48 11 bc 64 12 8b 3c
       -0.014369626 1.4965495e-05 -0.008867398 0.016976543
000300 b6 2d 04 3c bf c9 0c 3a 52 77 1f b9 de a6 92 39
       0.008067539 0.00053706387 -0.00015207872 0.00027971616
000310 bd 33 25 ba f0 c3 25 3c f1 fc fe 3b 73 9e 8a 3a
       -0.000630196 0.010117516 0.007781618 0.0010575786
000320 80 af 0e 36 5b 5c b5 3b 70 0d a4 3c c6 34 45 bb
       2.1261803e-06 0.0055346913 0.020025939 -0.003009127
000330 ee 95 66 38 dc a6 80 bb 2a 2a 19 39 cb 76 4f 36
       5.4975906e-05 -0.003926141 0.00014606924 3.091455e-06
000340 3f 82 c6 ba 34 bb 8b 39 a4 08 96 3a d9 0b 51 3c
       -0.0015145018 0.00026651623 0.0011446667 0.012759172
000350 0d fb 43 b8 06 cb 30 bc 94 8b 2d 39 e0 7d 4b 38
       -4.6725432e-05 -0.010790592 0.00016550563 4.85162e-05
000360 cf 86 87 39 ab df f9 39 76 59 3d 3c ab 9d eb b7
       0.00025849647 0.00047659627 0.011556974 -2.8087603e-05
000370 b1 f5 ef 38 9a 1d 70 39 a3 2b 21 ba 0d 7b 89 b9
       0.00011442172 0.00022899211 -0.0006148165 -0.00026222356
000380 b7 82 8e 3c fd 5f 39 39 f9 77 06 3a 66 a1 80 b8
       0.017396314 0.00017678733 0.00051295717 -6.1335784e-05
000390 a8 19 89 bc 02 57 8e 3c ff d1 2d bc dc e8 22 bb
       -0.016735867 0.017375473 -0.010609149 -0.0024858033
0003a0 18 a7 a3 b8 be e4 93 39 ff bb 2c b9 02 6c d8 38
       -7.803569e-05 0.0002820845 -0.00016473232 0.00010319801
0003b0 c9 41 a2 3b ce b9 09 38 17 25 ce b9 ee bb d6 38
       0.00495169 3.283639e-05 -0.00039319016 0.0001023932
0003c0 55 0b 87 b8 5a 33 4f 38 a0 a7 a0 38 d8 41 09 bc
       -6.4394124e-05 4.940047e-05 7.660617e-05 -0.008377515
0003d0 dd cc 87 ba cf b2 44 38 ca 54 19 bc 7c a2 2f 3c
       -0.0010360737 4.689657e-05 -0.009358594 0.010719892
0003e0 b4 1a a8 38 49 94 d6 b8 00 56 71 b7 13 bb 4d bc
       8.015838e-05 -0.000102319354 -1.4384743e-05 -0.012556809
0003f0 05 98 20 ba 59 7f 7e 38 7e 7f 62 3c 60 65 95 bb
       -0.00061261683 6.067692e-05 0.013824342 -0.004559204

lstm.bias_ih_l0 f4 [512]
000000 88 cc ee b7 50 33 16 3a 18 ac 89 38 5c 5d db 39
       -2.8467053e-05 0.0005729692 6.564724e-05 0.00041840493
000010 e1 9b 94 b8 07 e1 46 bc 40 27 3f 37 15 08 af 3a
       -7.086225e-05 -0.012138612 1.1393626e-05 0.0013353849
000020 60 79 9c bc c3 a6 ec 3b 08 97 27 ba ce 2c 08 38
       -0.019100845 0.007222028 -0.000639305 3.2466654e-05
000030 9b 6e 0c b9 36 95 23 39 e1 2b 25 bc d9 63 02 ba
       -0.00013392644 0.00015600477 -0.010081262 -0.0004973985
000040 29 75 bc 38 37 9a 39 b9 8b 9b 01 39 92 10 00 b9
       8.986361e-05 -0.00017700424 0.00012360343 -0.00012213204
000050 34 15 45 3c 70 6a e5 b8 9d 31 47 bc 03 98 e4 3b
       0.012028981 -0.000109393965 -0.012157825 0.006976129
000060 f4 c1 03 bb dc ec 95 3c 6c ee a1 b8 24 ab 93 3c
       -0.0020104619 0.01830142 -7.721488e-05 0.018025942
000070 53 39 8c bc 9b 2a e2 ba 3e ed 4f 3b 78 6a f1 bb
       -0.017117178 -0.0017255129 0.00317271 -0.0073674284
000080 1e 82 28 39 78 8b f9 3b a8 8c f8 b6 a5 9d d0 37
       0.00016070201 0.007615503 -7.4073505e-06 2.4868941e-05
000090 91 62 17 3b b5 bb 9b bb 4c 0b 6d 37 92 4d 2b bc
       0.0023099522 -0.004752601 1.4128931e-05 -0.010455506
0000a0 ed 09 b6 b9 37 e5 12 3b e9 8d 20 b8 b1 b8 61 bc
       -0.0003472114 0.0022414455 -3.8279137e-05 -0.013776944
0000b0 c9 24 05 3c 59 5b 3d 3b eb bf cf bb 3b 0d 0b 3a
       0.008126446 0.0028893559 -0.006340017 0.00053044007
0000c0 85 b2 80 b9 a0 7f 44 bc bd b8 c9 39 17 ea 06 b8
       -0.0002454707 -0.011993319 0.00038475348 -3.2166103e-05
0000d0 90 3a 6b b9 14 3c 2f bb 88 71 f6 38 4e 85 db b7
       -0.00022433163 -0.002673869 0.00011751341 -2.616891e-05
0000e0 5a 81 d6 b8 51 c5 8b 3c 84 af 28 37 63 0c 55 bb
       -0.00010228409 0.017061861 1.0054446e-05 -0.0032508604
0000f0 c9 3c 2a ba 78 76 e4 39 2e 0f 8d b6 cd 2e 42 b8
       -0.0006494043 0.00043575815 -4.2038946e-06 -4.629679e-05
000100 01 31 7d b9 97 99 d7 bb b6 3f 96 3c ff 6c 96 b8
       -0.00024146216 -0.0065795886 0.018340927 -7.1728595e-05
000110 d2 ad 0f b9 75 51 82 bb 53 d2 4b bc ea 01 41 bb
       -0.00013702296 -0.0039769956 -0.012440282 -0.0029450604
000120 f6 05 15 bc 9b 7f a0 b7 14 36 78 38 70 30 84 b8
       -0.0090956595 -1.9132907e-05 5.917817e-05 -6.303273e-05
000130 58 11 1f 39 65 92 17 bc 56 10 80 37 e2 83 90 b8
       0.00015169883 -0.009251212 1.5266396e-05 -6.89102e-05
000140 73 8b 6b b9 c0 a1 1c b8 1a 9c 63 37 00 ed 71 37
       -0.00022463295 -3.734394e-05 1.35666e-05 1.44199e-05
000150 88 ba 73 36 ff ed 2a b9 48 83 48 b6 96 0a 85 3c
       3.6318397e-06 -0.00016301124 -2.9878738e-06 0.0162404
000160 f0 4d 4d 3c f5 79 88 3c 89 42 64 3b 2d 64 66 bc
       0.012530789 0.016659716 0.0034829697 -0.01406197
000170 bc 79 76 3b d4 e7 00 39 8f 71 59 b9 5d ef 43 bc
       0.003760918 0.00012293394 -0.00020737037 -0.011958924
000180 21 c0 2c b9 ce 4e 91 3b 9f c9 7e 3a af 2b 16 bb
       -0.00016474772 0.004434443 0.0009719375 -0.002291422
000190 b0 2b 8d bc e4 f7 e3 3b 3e 11 8b b9 e0 75 df b9
       -0.017232746 0.006957041 -0.00026524992 -0.00042621698
0001a0 24 0f b9 bb 79 de 1c bb 0a 1f a4 b8 b5 dc 1e ba
       -0.005647557 -0.0023936315 -7.825911e-05 -0.00060601096
0001b0 93 e6 12 39 06 e7 77 39 b3 67 f1 3a a6 5c eb b9
       0.0001400954 0.00023641819 0.0018417746 -0.0004489172
0001c0 7b 86 51 bc 36 08 26 3a c3 56 83 39 f3 ff 92 39
       -0.01278841 0.0006333621 0.0002505091 0.00028037987
0001d0 cd 05 c6 38 3b e1 25 3c 00 a1 88 3c c3 3d 29 b9
       9.442456e-05 0.0101245 0.016678333 -0.00016140104
0001e0 3b bd 75 3c 97 3a 50 b8 5e 9a 29 3a cc b8 02 b9
       0.014998729 -4.964563e-05 0.0006469841 -0.00012466608
0001f0 7e 1b bb b8 b8 43 d8 bb d3 c5 49 bc 2c ff 0f ba
       -8.921976e-05 -0.0065998696 -0.012315231 -0.00054930407
000200 3f c1 10 b9 c4 3c b5 b8 d8 c2 cf 38 77 93 93 3c
       -0.000138049 -8.642071e-05 9.906822e-05 0.018014653
000210 4a 1f 0e bc 4d 98 46 39 e4 9b 86 3c 01 72 6c b8
       -0.008674452 0.00018939488 0.016431756 -5.637296e-05
000220 41 5e 09 ba 4b 74 71 3c 43 82 16 3a b8 48 11 3c
       -0.000524018 0.014737199 0.00057414564 0.008867435
000230 72 91 42 bc 20 3a 5e 39 28 80 17 3a dc 96 dd 39
       -0.011875497 0.00021193223 0.00057792896 0.00042264804
000240 1d a8 c9 bb a4 4e 6d 38 ed ca 0e 39 51 5b 8f 39
       -0.006154074 5.6578443e-05 0.00013617771 0.00027343121
000250 44 ed 53 39 be 4e 98 38 50 54 11 b9 4d 4b 7d 3c
       0.00020210916 7.262592e-05 -0.00013859686 0.015459848
000260 a2 ed 8c bc 44 3d 2a 3a 12 55 48 3b 00 69 3c 3b
       -0.017203156 0.00064941146 0.0030568284 0.0028749108
000270 b1 09 75 bc 9e 45 1a bc 5f 30 98 3c 33 a7 87 b8
       -0.014955924 -0.009416012 0.018577753 -6.468445e-05
000280 49 f6 ab 38 bb f4 18 3a a3 bf 85 3b 85 18 8e bc
       8.1997896e-05 0.00058348075 0.004081683 -0.017345676
000290 77 72 e6 3b 06 0f 7c bc 3b a4 99 bb 58 e6 33 b8
       0.0070326882 -0.015384441 -0.0046887673 -4.289145e-05
0002a0 e9 85 31 bb fe cb 20 3a 9d 77 93 b9 98 b3 2f b8
       -0.0027087873 0.0006133913 -0.00028127144 -4.189051e-05
0002b0 82 c2 0d 39 0a b2 4c 39 d8 3a 62 b9 f5 b8 d9 b9
       0.00013519268 0.00019521281 -0.0002157496 -0.0004152727
0002c0 40 5f a3 37 6d 2b 04 bc 38 f7 62 3c 72 3e 58 39
       1.9475468e-05 -0.008066994 0.013852887 0.00020622628
0002d0 ed 72 0e bc 15 ce 8d 36 32 57 04 b9 08 94 bb b9
       -0.008694393 4.2261186e-06 -0.00012620984 -0.0003577771
0002e0 02 4d b2 b8 57 39 18 b9 71 08 a6 b6 44 7c e9 36
       -8.502045e-05 -0.0001451721 -4.948168e-06 6.9584075e-06
0002f0 ff 86 5b b8 fa 44 17 38 80 3f 18 3a 0a 69 4d 39
       -5.2339394e-05 3.6065445e-05 0.0005807802 0.00019589454
000300 16 95 ed 3a 3e c8 de 3a a9 a7 13 bb ed b4 20 38
       0.0018126096 0.0016996933 -0.0022530353 3.8315473e-05
000310 5a be 92 38 8a 57 cf 38 4c 8c c9 bb 38 3b 03 3c
       6.997278e-05 9.8868346e-05 -0.006150758 0.008009724
000320 80 68 5f 37 86 34 2a bc 67 e6 8b bc 64 c7 02 35
       1.3316167e-05 -0.010388499 -0.017077638 4.8718925e-07
000330 3b 91 53 ba d0 25 72 ba d0 ad d0 b7 26 77 d5 3a
       -0.0008070652 -0.0009237202 -2.487647e-05 0.0016286119
000340 c4 bb 8b 3a 5c 75 2a 3a 08 19 85 38 00 ee 69 33
       0.0010660817 0.0006502473 6.346597e-05 5.4466e-08
000350 08 93 41 bb dc 9d 85 b8 df 6c c6 b8 3b 6b 56 3c
       -0.00295371 -6.371338e-05 -9.4616546e-05 0.013087089
000360 c5 1f 87 bc ad 72 79 3c 38 e9 88 b8 34 3e 5d bc
       -0.016494641 0.015225095 -6.528426e-05 -0.0135036
000370 2b aa 61 3c ea d7 91 39 b8 8b 1b b9 bb cf 61 bb
       0.013773481 0.00027817424 -0.00014834001 -0.0034456092
000380 4c b8 ce 38 fe 0a 8d 3b 65 d9 8f 3c 83 ac 8b b9
       9.8571734e-05 0.004304289 0.017559716 -0.00026640677
000390 10 64 26 3c 48 d3 c5 b7 96 b1 ef 39 65 aa 28 39
       0.010155693 -2.3582616e-05 0.00045717944 0.00016085205
0003a0 3c bf 27 3a 51 fd e6 38 cf 51 82 39 99 f4 8d b9
       0.00063990406 0.000110144385 0.00024856484 -0.00027075855
0003b0 9a 11 cb b9 3d 77 74 bb 38 c8 07 3c d1 fa 8f 3c
       -0.0003873229 -0.0037302517 0.008287482 0.017575653
0003c0 0f 87 15 3a e7 89 47 bb 3b 65 8a b8 08 bc 86 3c
       0.0005704024 -0.0030447186 -6.5992084e-05 0.016447082
0003d0 e7 29 07 3c fb fb 1e bc 40 d0 5e 39 69 4a cc 39
       0.008249736 -0.0097036315 0.00021249149 0.00038965352
0003e0 3e 61 41 39 b2 da 5b b7 a4 16 94 39 d6 54 98 3c
       0.0001844214 -1.3104336e-05 0.00028245628 0.01859514
0003f0 b6 0d 69 b9 e5 d5 77 39 a2 21 4d 3c 85 dd b7 3b
       -0.0002222572 0.00023635438 0.012520226 0.005611124

lstm.bias_hh_l0 f4 [512]
000000 e5 57 db bb 19 66 ee 39 27 da 98 39 fb 77 e8 37
       -0.0066938275 0.00045470966 0.00029154235 2.7712425e-05
000010 71 42 5e 3c 91 f0 e9 39 00 d6 e2 35 74 53 79 bc
       0.013565646 0.0004462046 1.6900594e-06 -0.015217651
000020 30 c8 b6 bb 4f d3 a2 b9 91 44 1f bc 82 44 87 39
       -0.0055780634 -0.00031056485 -0.009720937 0.0002580025
000030 aa e0 85 b9 59 87 a1 bb 70 42 28 3a 1d cb 80 39
       -0.00025535125 -0.004929465 0.00064185914 0.00024565394
000040 46 86 96 bc 0a cf a6 b7 f1 24 44 39 53 f4 28 38
       -0.018374573 -1.9885152e-05 0.00018705778 4.0281866e-05
000050 ff ae 58 3c 06 8b 33 38 f6 78 47 b7 9d 5a 97 3b
       0.013225316 4.28064e-05 -1.1889488e-05 0.0046189562
000060 94 95 8f 38 f4 e5 bf 38 49 3a 6d 37 56 93 97 bc
       6.8466325e-05 9.150422e-05 1.4139871e-05 -0.018502872
000070 ef a3 bc b7 65 95 28 b9 c0 0a 06 3a 26 e8 35 37
       -2.2487684e-05 -0.00016077382 0.0005113296 1.0842492e-05
000080 60 5c a3 38 a4 39 77 bc 5e 7f 31 38 f7 14 76 3b
       7.789652e-05 -0.015089426 4.231871e-05 0.0037549117
000090 11 e2 d6 bb 0b 6c 22 39 89 c1 8e 37 be b5 32 3c
       -0.006557711 0.00015489773 1.7017841e-05 0.0109075885
0000a0 40 7b 0f 3a 94 63 2a 3a 74 a9 00 3a a1 de eb bb
       0.0005473383 0.00064998236 0.0004908063 -0.0071981703
0000b0 ed f6 f3 ba ac 1e 23 ba 27 4a 7b bb 4d dd 28 3b
       -0.0018613018 -0.0006222527 -0.0038343759 0.0025766671
0000c0 64 4e fb bb 50 3c 8c 39 f4 3a dc bb f7 af 0d 38
       -0.007669257 0.00026747817 -0.006720895 3.37809e-05
0000d0 a9 b5 23 3a d0 7f b9 bb 65 a2 67 b7 84 7e 57 3b
       0.0006245026 -0.0056609884 -1.3806483e-05 0.0032881806
0000e0 28 44 20 39 30 68 09 b9 d8 06 df b8 24 5b 72 37
       0.00015284179 -0.00013104151 -0.000106347434 1.4445544e-05
0000f0 a4 94 a6 39 3d ca 02 39 18 86 07 b6 dd c8 01 38
       0.00031772733 0.00012473106 -2.019462e-06 3.0943065e-05
000100 23 bf 21 b8 2f ae 11 ba f1 39 f1 3a e2 49 1a 3a
       -3.85634e-05 -0.00055572664 0.0018404109 0.0005885643
000110 4e 71 4d b7 21 b7 21 ba 7f f5 34 bc 2a 68 85 b8
       -1.2245333e-05 -0.0006168951 -0.011044859 -6.361336e-05
000120 26 28 16 bc 7b 00 1e 3a 8d 49 0f ba 77 26 86 ba
       -0.009164846 0.0006027293 -0.0005465977 -0.0010234852
000130 c1 9d 6a b7 64 5e 01 38 25 9d 2e 39 bc 98 18 39
       -1.3984217e-05 3.0843905e-05 0.00016652474 0.00014552748
000140 64 6d 1b bb ee 0e 71 b8 bb eb 3e bb 4f 39 f8 39
       -0.0023716325 -5.7472782e-05 -0.0029132206 0.00047344944
000150 8f 0d 2a ba 20 bc f9 37 d3 d4 fd ba 34 43 85 bc
       -0.0006487006 2.9770716e-05 -0.0019365795 -0.016267397
000160 30 b4 b9 b8 80 9c 25 b5 98 ed 01 bc 80 a9 87 39
       -8.85505e-05 -6.169503e-07 -0.007930182 0.00025875494
000170 27 f4 68 b9 ad 5d c4 39 fe dd 8f bc 00 df 3c bb
       -0.00022216198 0.00037453827 -0.017561909 -0.0028819442
000180 d9 26 0a 38 9c 6f 78 39 28 bc b0 b8 35 9c 53 bb
       3.2937944e-05 0.00023692701 -8.427381e-05 -0.0032289152
000190 4d 2a b0 39 27 89 b4 3b b9 3b 9c 39 d0 e3 27 b6
       0.00033600852 0.005509514 0.00029799136 -2.5017544e-06
0001a0 b9 a5 bb bb dc 94 25 b9 bd 8a 27 3c 7a aa 18 b8
       -0.005726543 -0.0001579108 0.010225949 -3.6398393e-05
0001b0 d5 27 ac 3a 71 9c ad 3b 90 f2 2c b6 7d 80 c0 3a
       0.001313443 0.0052981903 -2.5771187e-06 0.001468673
0001c0 c0 10 15 bc 5f 04 b9 3b 62 d3 20 ba 85 48 58 39
       -0.009098232 0.005646273 -0.0006135014 0.00020626381
0001d0 6a 8f bb b9 e1 3f 8b b9 b1 f0 79 37 53 37 90 b6
       -0.0003577427 -0.0002655974 1.4897597e-05 -4.297975e-06
0001e0 b8 44 0a 3c d5 5d 14 38 f9 0c 9a 3b 74 18 72 3c
       0.008439235 3.5373338e-05 0.0047012535 0.014776338
0001f0 b5 74 7e 39 b6 3c 03 bc fe aa 8f bc 8b 7d 23 3a
       0.00024266804 -0.00801008 -0.01753759 0.0006236664
000200 60 54 14 bb d0 0b fe b9 88 28 1e ba 1f e6 03 3b
       -0.00226333 -0.00048455456 -0.00060332613 0.0020126177
000210 ee ba 18 ba 86 2a e7 37 2a 9c 93 39 e6 33 9f b6
       -0.00058261945 2.7557147e-05 0.00028154376 -4.744611e-06
000220 2e c1 ad b8 dc 84 47 39 2d a1 d0 b8 02 bd 22 38
       -8.285265e-05 0.00019027613 -9.948234e-05 3.8799837e-05
000230 f8 38 a2 3b 55 d6 70 b9 7f 9e 8d 3c 9b b5 2a b8
       0.004950639 -0.00022968028 0.01728749 -4.070029e-05
000240 e3 4e 92 36 4c cb 76 38 8b 56 b2 b9 26 71 19 3b
       4.3603227e-06 5.8840305e-05 -0.00034015285 0.002341339
000250 de a9 bc bb 20 69 00 bc c9 b2 1b 3a c5 a5 b4 39
       -0.0057575544 -0.007837564 0.0005939422 0.00034455783
000260 bb 8e 6a 3c 31 76 9c bb 94 ef 23 b9 ad e0 04 3c
       0.014316256 -0.0047748317 -0.00015634141 0.0081102075
000270 ea 5d e6 bb 6b 4b 6d 3c b6 e4 0a b9 99 c5 24 bb
       -0.0070302384 0.014483313 -0.00013245907 -0.0025142191
000280 3b 9a d9 38 6f 7d bd 38 08 97 12 3b e0 1b e1 bb
       0.00010376094 9.035586e-05 0.0022367854 -0.006869778
000290 ba 9a cd b9 c8 9d 83 b9 03 69 32 b9 d8 4e 06 3c
       -0.00039215927 -0.00025103823 -0.00017014523 0.008197509
0002a0 cd 20 2a 3a 5e 3f 10 3c 39 bb 0d bc 7e c4 bb 37
       0.0006489873 0.00880417 -0.008650594 2.2383636e-05
0002b0 ba 3b 3c 3c ac 17 ec 38 7f 47 04 ba 7b 44 07 3c
       0.011488849 0.00011257766 -0.0005046054 0.008256073
0002c0 d5 4f 0e 39 15 ee 87 39 a5 aa 46 b8 3a d2 77 39
       0.00013571915 0.00025926591 -4.7365804e-05 0.00023634071
0002d0 6e 44 05 39 44 d2 b6 b8 72 98 6c 39 69 f0 ac b7
       0.0001270936 -8.717601e-05 0.00022563504 -2.0615948e-05
0002e0 a4 ff 46 bc 40 97 95 36 80 d2 05 3a ab 30 bb bb
       -0.01214591 4.458154e-06 0.00051049143 -0.005712589
0002f0 6b 43 5d 3a 1e 22 b3 37 92 3d 93 3c 55 5c 85 3c
       0.0008440527 2.135435e-05 0.017973695 0.016279379
000300 6e d3 e8 3a 4a eb 1d ba e1 ee 52 3c 48 c4 14 3b
       0.0017763206 -0.00060241355 0.012874336 0.00227
000310 60 77 de 37 ca 1a 23 38 63 87 70 3a cd 4a 89 38
       2.652005e-05 3.8887178e-05 0.00091754476 6.546602e-05
000320 85 3b e8 b8 1f 42 47 bc 07 b8 28 36 30 05 67 ba
       -0.000110737084 -0.012161761 2.5141069e-06 -0.00088127237
000330 bc 50 50 bc ab b7 1a 3a c0 15 92 39 e3 d7 c1 37
       -0.012714561 0.00059020024 0.00027863495 2.3107923e-05
000340 82 ef 2e bc e8 b5 21 ba 87 64 4a bc d0 67 91 bc
       -0.01067722 -0.0006168769 -0.012353069 -0.017749697
000350 af 5d 93 b9 dd c1 82 3c 89 57 e1 38 46 f7 5a bc
       -0.00028107825 0.015961582 0.00010745141 -0.013364619
000360 b6 04 73 b9 33 0c 9c 39 28 cb 95 3c d6 f6 fd 39
       -0.00023176041 0.00029763728 0.018285349 0.00048439828
000370 ae bb 93 b8 67 41 12 b9 d2 ae 5c b7 35 6d 23 3b
       -7.044464e-05 -0.0001394801 -1.3153725e-05 0.0024936919
000380 b9 59 6b 38 75 26 86 3b 92 d4 79 b9 28 09 74 3c
       5.6111927e-05 0.00409394 -0.00023825679 0.014894761
000390 77 a2 c3 b9 b0 41 44 3c 22 95 3c b9 33 f6 00 b9
       -0.00037314344 0.011978552 -0.00017984633 -0.00012298748
0003a0 a4 e0 68 b8 db c0 c6 b8 32 d7 28 3a a9 72 ba bb
       -5.5522323e-05 -9.477298e-05 0.0006440758 -0.005689938
0003b0 44 72 3a b9 bf 7c 17 3c 16 de e4 38 08 ab 4c bb
       -0.0001778091 0.00924605 0.00010913254 -0.0031229872
0003c0 88 d8 c9 37 14 c4 07 bc 8d 05 89 b9 0e e0 ba bb
       2.4061897e-05 -0.008286495 -0.00026134812 -0.005702979
0003d0 88 96 02 b8 83 12 46 3c a5 82 df bb 11 42 a1 b8
       -3.113461e-05 0.0120893745 -0.006820994 -7.689384e-05
0003e0 74 a3 1e ba 4d f1 bf 38 fa e8 a2 b8 6b 4f f4 bb
       -0.0006051578 9.1525355e-05 -7.768157e-05 -0.0074557564
0003f0 42 f4 3d b9 26 24 b0 39 f6 44 5d 3b 37 fb 4f bc
       -0.00018115438 0.0003359627 0.0033763028 -0.012694172

lstm.weight_ih_l1 f4 [512, 128]
000000 4a 46 6a 3b ae 9a ae 3c dd e4 13 ba f4 fa 06 bb
       0.0035747462 0.021313991 -0.0005641708 -0.0020596357
000010 1e ac 83 b9 6e e9 b5 3c 6b b4 42 3c 3d 35 bf 38
       -0.00025114504 0.022206035 0.011883835 9.117506e-05
000020 65 a1 42 3b 48 c9 48 bc b7 84 1d 3a 8f 17 9f bd
       0.002969825 -0.01225502 0.0006008851 -0.07768165
000030 17 29 a0 ba 0c e1 5c 39 40 52 84 bd 84 df 6a 3b
       -0.0012219277 0.00021064671 -0.064610004 0.0035838792
000040 a3 0f 2a bb b1 ee 22 ba 9f c9 43 bc 53 a6 13 b9
       -0.0025949262 -0.00062153774 -0.011949926 -0.00014080973
000050 27 2d 66 bc f3 ac dd 39 f7 06 e8 b8 62 08 18 bd
       -0.014048851 0.00042281262 -0.000110639194 -0.03711737
000060 5a 4e 34 b8 72 81 8e bd fd 88 e9 bb 4a d1 64 39
       -4.2988315e-05 -0.069582835 -0.007126926 0.0002182174
000070 fd b1 1d 3d 44 97 22 bb 4c 3f f6 bb 6a 3f 2e 39
       0.03849982 -0.00248094 -0.00751487 0.00016617557
000080 4b aa 29 3a 35 1a 49 3d 12 29 23 3c b2 87 9f 39
       0.0006472214 0.04909726 0.009958522 0.00030427944
000090 57 9b 5b ba 86 93 5c 3d aa 18 73 b7 99 b3 b8 ba
       -0.00083773345 0.053851627 -1.4489671e-05 -0.001409161
0000a0 3a 41 13 3c ae 4c df b7 e4 12 30 bc b2 dc 7c 3d
       0.008987719 -2.6619378e-05 -0.010746691 0.06173391
0000b0 0d 8d 8a 38 44 6a db b7 26 fd 27 bc 95 81 e0 b7
       6.6066255e-05 -2.6156318e-05 -0.010253226 -2.6763222e-05
0000c0 5a a3 7f bc fc 96 7d 3d 49 42 d4 3b c2 fc 98 3d
       -0.015602911 0.061911568 0.0064776284 0.07470085
0000d0 15 33 93 bc 3d 9a fa 37 f0 36 2f bb 49 22 93 38
       -0.017968694 2.9874145e-05 -0.0026735626 7.015892e-05
0000e0 83 71 bf 3a 96 2e bc ba 78 66 1b bd 22 fa ad 38
       0.0014605973 -0.0014357145 -0.03793952 8.295874e-05
0000f0 54 f9 81 3b 2f 56 4a b7 ed c5 94 3c f4 75 11 3c
       0.00396649 -1.2060204e-05 0.018160785 0.00887822
000100 b4 bc ad ba a7 ff 68 bb 95 96 94 39 34 7a c9 b6
       -0.001325509 -0.0035552771 0.00028340952 -6.004493e-06
000110 34 f0 00 3d dc f6 df b8 82 85 3d 3d 7f 1d 51 b9
       0.031479076 -0.0001067945 0.0462699 -0.00019942781
000120 ee d0 7e b9 62 d3 7e 3c 90 85 c3 ba ed 6e 5b bb
       -0.0002430116 0.015553327 -0.0014917124 -0.0033482865
000130 c8 73 59 38 72 35 2a b9 af 42 d1 3c e0 f2 41 3b
       5.184466e-05 -0.00016232373 0.025544493 0.0029594228
000140 35 ce 84 3c 14 dc 53 3c 5d 45 fa 3c 36 20 aa bc
       0.016211608 0.012930889 0.030550653 -0.020767312
000150 d2 3f 62 3b 86 1d 75 bd 6f 14 29 ba 52 24 e9 37
       0.0034522903 -0.05984261 -0.0006449883 2.7792677e-05
000160 ee 6e 1a 3b 57 ac ce 3c ab db 1f bc 1a 9b 97 bb
       0.0023564654 0.025228662 -0.009756963 -0.004626644
000170 6c a2 17 bd 9a fd 26 39 05 31 ff 3c 42 e9 7d 3c
       -0.037020132 0.00015925468 0.031151304 0.0154975075
000180 48 f4 3d 3b f8 c4 9d b5 02 9b 66 3d ed 11 cd 3c
       0.0028984714 -1.1754737e-06 0.05630017 0.025032962
000190 38 45 96 39 3c 5a cd bc f1 30 24 39 42 b0 18 bd
       0.00028661801 -0.025067441 0.00015658491 -0.037277468
0001a0 3d ce fd 3c bd 15 1d 3c 26 5c d5 38 15 07 5c bc
       0.030982131 0.009587702 0.000101737955 -0.013429423
0001b0 90 70 08 3c 8a 11 b4 3a c8 f0 c6 3b 65 66 16 bd
       0.008327618 0.0013738137 0.006071184 -0.036718745
0001c0 44 9b b3 3b 1c 35 e6 ba 17 39 2b 3b 10 be 39 bd
       0.0054811556 -0.0017563435 0.0026126557 -0.045347273
0001d0 0c 8e 1f bd 92 d6 76 3c 57 28 ed bb 42 36 b5 3b
       -0.038953826 0.015065806 -0.007237475 0.0055301497
0001e0 24 24 de bb 67 de 33 38 dd 01 4b 3c b6 d8 99 3b
       -0.0067792106 4.2884054e-05 0.012390581 0.0046950234
0001f0 47 96 c8 bc 08 8a c0 3b 14 35 4a 3d 7c d9 ad bc
       -0.02448572 0.0058758296 0.049367025 -0.021221869
000200 90 fe f1 ba 86 ba 68 bc de 8b e1 b8 1b f0 05 3a
       -0.0018462706 -0.014204627 -0.00010754888 0.0005109326
000210 b4 ce 33 bc bd f4 82 bd da 83 8e ba 51 72 a8 3b
       -0.010974575 -0.063943364 -0.0010873035 0.0051405807
000220 38 53 59 bb 27 32 e4 b8 4d 2a e6 38 8e 5d 8c bd
       -0.0033161175 -0.00010881229 0.00010975134 -0.06853782
000230 97 62 e2 b8 39 a2 86 b9 9e b8 58 bd 34 90 9e bd
       -0.000107948836 -0.00025679337 -0.05291044 -0.07742348
000240 86 d9 26 3d 37 20 48 39 1e 93 8a 3b 47 34 c8 3b
       0.04073479 0.00019085487 0.0042289635 0.0061097476
000250 e3 52 88 3c 69 63 19 3c 17 a9 7d b9 59 df 56 bd
       0.016641086 0.00936208 -0.00024190951 -0.052459095
000260 2a 48 b2 b8 46 e6 7c bc 5d bb 1e bc 8e d0 5d 3c
       -8.501143e-05 -0.015435761 -0.009688226 0.013538493
000270 d2 cb 33 bd eb 33 a6 bc 4c 6e bb bb 77 3a d4 ba
       -0.04389555 -0.020288428 -0.0057199355 -0.001619174
000280 e5 05 0b 39 6c 18 85 3d 20 5e 30 bd 5e 31 db 3b
       0.00013258269 0.06498799 -0.043058515 0.0066892346
000290 ae 8f 80 3c 04 05 8c 3c c0 70 1c 38 e6 c9 a7 b6
       0.015693512 0.017092235 3.7298305e-05 -5.000492e-06
0002a0 cc bf 6d 3d a6 4b a3 b9 40 70 56 bd 8d ae 85 3d
       0.05804424 -0.00031146145 -0.052353144 0.065274335
0002b0 b5 7d 4c 39 5c 4c 16 3a 60 c8 1e bd c2 65 2a ba
       0.00019501786 0.00057334243 -0.03876531 -0.00065001484
0002c0 1c 8c 91 bb d6 6b e1 3c 90 a6 f1 bc b8 39 07 3d
       -0.004441751 0.02751724 -0.029498369 0.03301403
0002d0 44 aa c0 ba 44 4e 17 39 d0 f4 a7 3c 5f de 6a b8
       -0.0014699181 0.00014429638 0.020502478 -5.5997047e-05
0002e0 5c 56 88 3c 8b 7f 8c 3b 99 36 87 3d d6 aa 55 3c
       0.016642742 0.0042876652 0.066022106 0.013041219
0002f0 6a 34 af 3b 10 74 2e bb 50 b3 e0 3b fa b8 5a 3c
       0.0053468244 -0.0026619472 0.006857313 0.013349766
000300 c1 d9 15 39 03 54 99 bc 85 13 9f 3b 2e 19 fd 38
       0.00014290867 -0.018716818 0.004854622 0.0001206867
000310 f0 a2 6c 3b 0f 24 b3 b9 03 0e 4b bd 2a cb 1b bc
       0.003610786 -0.00034168406 -0.04957391 -0.009508887
000320 5c 5c f2 bc 97 68 3d 3b db ae b7 3c be fa 8a 37
       -0.029585056 0.0028901452 0.022422245 1.6567643e-05
000330 79 39 16 3c 98 56 58 39 b9 0f 2f 3c d2 88 d8 3c
       0.009168976 0.00020631624 0.010684901 0.026432429
000340 20 75 0a bb 96 83 a1 38 f9 f0 59 bd 6b 8c 79 3c
       -0.002112694 7.701588e-05 -0.053208325 0.015231232
000350 50 0f ad bb b4 5b a8 3d 1b 1d f6 3b ca 26 39 3a
       -0.0052813664 0.08220616 0.007510794 0.000706297
000360 29 73 2e b9 a9 f1 46 bd 09 bf c5 37 ba 13 35 bd
       -0.00016636834 -0.04857031 2.3573188e-05 -0.044208266
000370 cd f0 0f bd a7 42 88 37 08 bb 12 3c d9 96 b6 3c
       -0.035141755 1.62435e-05 0.008955725 0.022288727
000380 39 98 19 bb 7b 42 9d 37 15 2f 38 bb 7a 9b b2 bc
       -0.002343668 1.8746816e-05 -0.0028104235 -0.021802653
000390 7f 3c b6 3b b6 42 d3 ba a6 4d ef bb c1 d4 cf ba
       0.005561411 -0.0016117904 -0.0073029576 -0.0015856252
0003a0 a3 83 0c 3d 05 77 e6 bb 27 3a f5 38 e6 6d b4 b7
       0.034305226 -0.007033231 0.00011693342 -2.1508848e-05
0003b0 81 81 29 bc bd 7e dc bc c7 7e 09 3b 1a c6 91 bc
       -0.010345818 -0.026915902 0.0020980106 -0.017794657
0003c0 91 8c 2b ba fc a3 ad b6 ae 2e a3 3b 83 6f b3 3c
       -0.00065440784 -5.174892e-06 0.00497993 0.021903759
0003d0 10 a5 85 bd e2 84 61 38 dc 04 f2 b9 96 ba 80 bb
       -0.06525624 5.3767937e-05 -0.00046161457 -0.003928493
0003e0 5f 18 69 3b 7e f5 25 3b ac 13 91 3c 6c 72 87 39
       0.0035567505 0.0025323327 0.017709576 0.00025834457
0003f0 e2 42 32 bc a0 71 49 bc 3d 7a 4d bd 03 eb 0a 3b
       -0.010880204 -0.012295157 -0.050165404 0.0021197207

lstm.weight_hh_l1 f4 [512, 128]
000000 9f a6 51 ba 8e 82 5f 3b 70 93 8d 39 36 57 c1 3c
       -0.0007997546 0.0034104916 0.00027003465 0.023601156
000010 ea 5b 23 bc 8c 09 84 bc a0 4e f2 3b cb a8 b3 bb
       -0.0099706445 -0.016117834 0.0073946267 -0.005482768
000020 f6 d9 f5 bb 84 fc 17 bb 5e ce 65 3b 85 5e d3 3c
       -0.0075027896 -0.0023191283 0.0035065631 0.025801906
000030 6a fe b7 3a de 1a cb 3a 1f df 1a 3b 2b d1 a5 3c
       0.0014037613 0.0015495678 0.0023631526 0.02024134
000040 87 d0 b4 3c 01 3d b2 bc 69 3a 3b bc ef 5d d2 ba
       0.02207209 -0.021757605 -0.0114275 -0.0016049723
000050 5f 36 f4 bc 64 a8 60 3c 2f 87 68 38 32 6c bf bc
       -0.029811082 0.013712022 5.543901e-05 -0.023367021
000060 c8 53 b0 3c 28 15 86 bb e3 cb ec bb c1 31 7e 3c
       0.021524325 -0.0040918775 -0.0072264536 0.015514792
000070 2d 72 c0 3a 29 9a ef 3b 87 f9 8c 3a d1 c5 b5 3a
       0.0014682465 0.0073120785 0.0010755517 0.0013868158
000080 ca d5 ab bc ac 61 16 3d ee c6 97 bc da 61 be 3b
       -0.020975966 0.03671424 -0.018527474 0.0058100047
000090 09 46 79 bc 4b 3b b7 bb 91 00 07 bd c9 5c b8 bb
       -0.015214452 -0.005591785 -0.032959525 -0.005626295
0000a0 a9 aa 2c bc b4 61 67 3a ce c5 9e 3c c2 77 91 39
       -0.010538735 0.00088265096 0.01938143 0.00027745782
0000b0 b6 e1 e5 3a 92 0c ad ba e0 83 29 bc ee e4 57 3b
       0.001753858 -0.0013202599 -0.010346383 0.003294285
0000c0 b1 7b 86 3c d0 10 fe bb 68 6e f9 3a 28 8c 57 3b
       0.016416403 -0.007753469 0.0019030096 0.0032889936
0000d0 af 54 e2 3a 03 82 57 ba 0e cc d2 bc bb 55 12 3a
       0.0017267669 -0.00082209724 -0.025732066 0.0005582233
0000e0 75 b5 ee 3a 7a 1f 29 bc a7 fd 75 bb b8 27 b0 3c
       0.0018212037 -0.010322446 -0.0037535222 0.021503314
0000f0 ac 43 52 bb 36 f7 3c 39 d3 11 37 3b 80 64 f4 3c
       -0.0032083793 0.0001802117 0.0027934208 0.029833078
000100 f0 23 bb 3b 01 fe b5 3b a5 41 b3 3b b5 9f 06 3c
       0.005711071 0.0055539613 0.005470472 0.008216788
000110 ce 70 b1 3c 24 ab d8 bc fd 76 1a 3a e8 01 5f bc
       0.021660235 -0.026448794 0.00058923644 -0.013611294
000120 d3 1e 5c ba 60 12 e6 bb 0c dd 0c bd 19 27 7e bc
       -0.0008396927 -0.0070212334 -0.034390494 -0.015512251
000130 db bf 1e 3b 46 f2 6d 3b d6 09 b6 3c fe 81 bc bb
       0.0024223241 0.0036307736 0.022221487 -0.005752801
000140 be 49 ba 3b a4 3d a1 bc 80 10 9d 3b bb f9 ef 3c
       0.0056850603 -0.019682713 0.0047932267 0.029293885
000150 2c ee 62 39 27 37 9a 3c d1 d5 eb bc e6 b6 de bc
       0.00021641765 0.018825127 -0.028788479 -0.027186822
000160 a5 a7 b2 3c 8f 96 4a bc 08 a6 9f 3c cc 6d 55 3c
       0.021808455 -0.0123649975 0.01948835 0.013026666
000170 85 de dd bb e0 27 91 3c 23 7e 72 bc 7d b6 08 bc
       -0.006770911 0.01771921 -0.014800581 -0.00834429
000180 91 5f bd 3c fd 50 b6 bb 62 f8 c0 bc 86 ac 88 bc
       0.023116859 -0.005563854 -0.023555938 -0.016683828
000190 2f 92 18 3c db 14 83 ba b2 76 21 3b c6 29 88 bc
       0.009312197 -0.0010000722 0.0024637398 -0.016621482
0001a0 34 e4 89 3b 52 87 97 3c 43 0a 47 bb 39 49 4e bd
       0.004208112 0.018497143 -0.0030371107 -0.0503628
0001b0 7a f7 35 3b e5 a0 3a bc 23 3d d3 bb 91 53 38 3a
       0.0027765916 -0.011390899 -0.006446497 0.00070314953
0001c0 0c ac 50 b9 dd df 41 3b 59 98 ee 3c f8 d1 4f bc
       -0.00019900518 0.0029582896 0.02912538 -0.012684338
0001d0 95 d2 46 bc 24 99 db 3c ad 19 09 3b ed 0d 36 bb
       -0.012135168 0.026806422 0.0020919845 -0.0027779297
0001e0 62 9a 1f 3b b1 76 af 3c 1c fb f4 3b 5d a7 13 3d
       0.0024353494 0.021418901 0.0074762236 0.036048282
0001f0 04 45 3f bc 54 d4 80 3c b9 66 81 b9 77 05 9a bb
       -0.011674169 0.015726246 -0.00024681332 -0.0047003585
000200 55 0d c2 bc 38 04 58 3d 5e ce b0 3c 14 38 e8 3b
       -0.023687998 0.0527384 0.021582779 0.007086763
000210 3c 7b 80 3d 41 50 05 3c 41 7f f6 3a c7 82 c9 3c
       0.06273505 0.00813681 0.0018806235 0.024598492
000220 cb e5 e9 bc d6 7b 6a bc 4e 16 34 bc 05 1a de bc
       -0.028551957 -0.014311751 -0.010991646 -0.027112016
000230 d1 4f bf 3c c0 c7 1a bd db cf 01 bd 83 44 51 bc
       0.02335349 -0.037788153 -0.031692367 -0.012772682
000240 0e e3 c1 bc a8 7c 41 bc 74 52 09 bd 8d 52 8d bc
       -0.023667838 -0.0118095055 -0.0335259 -0.017251277
000250 47 6a 05 3c db 6a a9 bc b0 fe 83 bc 8b 6c f3 3c
       0.008143014 -0.020680835 -0.016112655 0.029714843
000260 0e d3 65 39 4b c6 a0 3b 84 c9 20 bd 39 35 0e 3d
       0.00021917766 0.004906451 -0.03925468 0.034718726
000270 18 67 1e bb 5f 56 e1 3b 86 ef 39 bd ca 9f 09 3b
       -0.0024170335 0.0068767513 -0.045394443 0.0020999783
000280 5e bd 97 bb 65 90 b0 bc d6 c1 8a bc 74 47 80 3b
       -0.0046307286 -0.021553228 -0.016938131 0.003914768
000290 0c 7b 24 3c db 8f 4f bc 3f 3d 2a bb 23 13 0b bd
       0.010039102 -0.012668575 -0.0025976447 -0.033953797
0002a0 d7 dd 6a bc f9 d6 1c 3c 94 f0 e8 3c 3d eb 1c bc
       -0.014335117 0.009572738 0.02843503 -0.00957757
0002b0 9b b2 ab bc 16 e6 1e 39 30 8f 80 3c 46 e0 97 3c
       -0.02095919 0.00015153768 0.015693277 0.01853956
0002c0 40 73 47 3d 90 4a 2c 3d 30 64 12 bd 1a f9 38 3b
       0.048693895 0.042063296 -0.035740077 0.0028224648
0002d0 b1 8d d9 bc 13 cd b1 3b 79 b5 46 bd e7 00 13 bd
       -0.026556822 0.005426058 -0.04851291 -0.035889532
0002e0 95 df f6 bc cb 4f 02 bc 82 8d 56 bc 97 0c ae bc
       -0.03013591 -0.007953594 -0.0130952615 -0.021246238
0002f0 d3 6b 9c bc d3 a1 b3 3c e1 3c 22 bb 86 a2 3c bc
       -0.019094383 0.02192775 -0.0024755525 -0.011513358
000300 a8 76 59 bc 0e 67 be 3c 89 79 fc 3c 21 6d b3 bc
       -0.013272919 0.0232425 0.030819671 -0.021902623
000310 a9 4f a1 3c 25 ac 3f bd c4 c6 0c 3d d5 e9 70 bc
       0.019691305 -0.04679503 0.034369245 -0.014704187
000320 d9 ae 5d bc da b3 ae 39 34 d0 31 bc 5b 0a 56 bd
       -0.013530456 0.00033321866 -0.010852862 -0.05225597
000330 e2 21 2d bd 5b 4d 89 bc 6f c6 26 3d 87 9b ed bc
       -0.04226864 -0.016760519 0.040716585 -0.029004825
000340 f3 b0 ab bc d6 7b a3 bc 67 7d 59 ba fa 31 55 bc
       -0.0209584 -0.01995651 -0.00082965795 -0.013012404
000350 94 19 b6 bc b1 9e d0 bb 8b 6b fb 3c b1 95 3d bb
       -0.022228993 -0.0063665737 0.030690929 -0.0028928334
000360 ba 6b bc bc 8b 32 4a bc 89 0e 01 bd 24 dd 02 bd
       -0.023000587 -0.012341152 -0.031508002 -0.031949177
000370 3b e7 17 bd 1c e4 b0 3c a5 56 5c bc 27 ac 7b 3c
       -0.037085753 0.021593146 -0.013448392 0.015360869
000380 22 fc 86 bb 7c 6c 70 3d 43 b0 db bb 64 78 2f 3c
       -0.004119412 0.05869721 -0.0067043616 0.010709856
000390 df 87 8a 3c 6c f2 21 bc 55 d2 ad 3c 5c 9a 43 bc
       0.016910492 -0.009884458 0.021218458 -0.011938658
0003a0 0f 91 c4 3c 10 df ef 39 c8 58 e3 bc b7 22 5f bd
       0.02399495 0.00045751827 -0.027752295 -0.054476466
0003b0 9e 90 c0 3b 9c 24 03 bc 1c 0b 2b 3a 1a 75 27 bb
       0.0058766147 -0.008004334 0.0006524788 -0.0025551976
0003c0 17 e7 56 bb 10 ed 11 bc 6b 5e 80 bc c8 09 f4 bc
       -0.003279155 -0.008906618 -0.015670022 -0.02978982
0003d0 1b c9 a7 3c fa 8a 17 bb a6 de 01 bc d6 47 66 3c
       0.020481637 -0.0023123608 -0.007926619 0.014055213
0003e0 96 4e f2 bc cf aa c9 3b 6a dd 02 3d d3 da b3 3c
       -0.029578488 0.006154395 0.03194944 0.02195493
0003f0 67 be 42 3c db 29 d7 3c 24 6a d6 bc 14 3f 01 3d
       0.011886216 0.026265075 -0.026173659 0.031554297
