checkpoints/best_multitask_cnn.pt (torch, 207501 bytes, 25 tensors)

feature_extractor.0.weight f4 [32, 5, 3]
000000 7f 80 7f bd 5c b0 cf 3d 54 06 b1 ba b2 09 c9 ba
       -0.062378403 0.1014106 -0.0013505914 -0.0015337972
000010 8a 1b be bd 06 77 9b 3c 01 f6 cf 3b 91 df 5b bd
       -0.092825964 0.018977653 0.0063464646 -0.053680006
000020 02 29 10 3d 45 60 d6 3c d6 b5 22 bd aa 94 a1 3d
       0.035195358 0.026168952 -0.039724194 0.078896835
000030 d0 43 e8 3d ce b7 16 be af 5d 38 be 69 de 82 bb
       0.11341059 -0.14718553 -0.18004487 -0.0039937985
000040 4f 53 bc 3d 53 9a a1 bd 68 34 a5 3c 4d 12 71 bc
       0.09195577 -0.07890763 0.02016659 -0.014713836
000050 dd 17 62 bd 0d 5c 6f bd 5c e1 45 39 30 35 98 b9
       -0.05519854 -0.058437396 0.00018871337 -0.00029031327
000060 39 62 14 ba 8f c1 50 39 97 de 66 3c 76 fd 66 be
       -0.0005660388 0.00019908532 0.0140911555 -0.22557625
000070 3a 31 5c 3e 86 38 9c 3d 30 59 c6 3d 29 e5 80 bd
       0.21503153 0.076279685 0.0968498 -0.06293709
000080 d7 d1 ba 38 a9 41 c8 3d 27 e7 04 bd 8a 91 47 38
       8.908257e-05 0.09778149 -0.032447007 4.758084e-05
000090 95 c2 20 3b 8d 37 7e 3d dc 87 33 bd c5 c2 96 3d
       0.0024530042 0.062064696 -0.043830737 0.07361368
0000a0 2c d2 e9 3b 91 7d 66 3d b6 68 55 be a9 07 e0 bd
       0.00713565 0.056272093 -0.20840725 -0.10938961
0000b0 dc 5a 62 3e 52 b8 55 bb cb ec 86 ba 39 45 ba bd
       0.22104973 -0.0032611084 -0.0010293958 -0.090952344
0000c0 01 0a 49 ba 74 30 35 bc 7d da b1 bd 36 19 5a bd
       -0.0007669032 -0.011058915 -0.086842515 -0.0532467
0000d0 bd c7 b6 bd 7c 10 cd ba 17 23 2c 3d d6 9d 59 3c
       -0.08924816 -0.0015645172 0.04202565 0.01328226
0000e0 7d f1 70 39 8c 46 61 be 22 3a 4b be 9e ce 0f 3e
       0.00022978145 -0.21999568 -0.19846395 0.14043662
0000f0 c5 5a 45 b9 44 ea 74 b7 a5 7a 65 bd b6 70 b9 bc
       -0.00018821198 -1.45980775e-05 -0.056025166 -0.022636753
000100 f8 ee 0b bb f8 78 8e 3d 7f 3f 05 bd 2a 9f b6 3d
       -0.0021352153 0.06956667 -0.032531258 0.08917077
000110 02 3c 43 bd f4 bc 24 bc 7c e3 a5 bd e6 a4 83 39
       -0.04766465 -0.010054816 -0.0810003 0.00025109126
000120 b3 8c d3 bd 05 ad 60 3e 1f 94 09 3e f9 b5 bd ba
       -0.103295706 0.21941002 0.1343541 -0.0014473788
000130 72 8a c0 ba cd 14 96 bd 14 0c 4b bd 41 ca e3 39
       -0.0014689697 -0.07328186 -0.049572065 0.00043447505
000140 bd 42 69 bd 5b 7d 05 3d d3 f8 6c ba 47 5a f7 3c
       -0.056948412 0.03259025 -0.0009039763 0.030194415
000150 8a 53 18 bb 8b d5 72 bd 6c 99 9e bd 04 ab 96 3d
       -0.0023243153 -0.05928568 -0.07744107 0.073568374
000160 91 7a 5d be db c1 3c 3e 4f 15 2a bb 04 e6 ad 38
       -0.21628787 0.18433325 -0.0025952642 8.2921266e-05
000170 3e 71 17 bc 44 ae a5 bc d6 f8 05 3d fa 6d 9b bd
       -0.009243308 -0.020224698 0.03270801 -0.07589336
000180 23 e2 3b bd ec 41 b3 35 6f fc 89 ba 60 38 37 3c
       -0.045869958 1.3355725e-06 -0.0010527502 0.011182874
000190 53 4d 1e bd be eb c3 3c 73 1f 3c 3e f0 76 40 be
       -0.03864796 0.023916122 0.18371372 -0.18795371
0001a0 66 ec 6f 3e c6 ca ab b8 8a 76 c4 3d a6 8e ff ba
       0.23430023 -8.191685e-05 0.09592922 -0.0019497469
0001b0 38 94 34 bd 7f 9a 92 b9 13 47 93 3d 7a 4c b7 3d
       -0.044086665 -0.000279624 0.07191291 0.089501336
0001c0 74 ea 43 bd 9b 7e 4b bd 0a 9f 38 bd 45 4a ef 39
       -0.047831014 -0.049681287 -0.045073546 0.00045640967
0001d0 db 59 08 bd 85 3f 80 3e 26 9c 0d 3d 49 d1 49 3d
       -0.033288818 0.25048462 0.034572743 0.049271856
0001e0 3e e1 d0 bd 30 fd 98 38 de 22 8b bd d3 af 54 bd
       -0.101992115 7.295085e-05 -0.0679376 -0.05192549
0001f0 0d ce 8d ba a4 09 56 bb ce 95 ac b5 75 e8 c3 3c
       -0.0010818854 -0.0032659555 -1.2858598e-06 0.023914555
000200 af f0 84 b9 53 22 bb bd 36 0d 4f 3d 96 9a 83 3c
       -0.00025356325 -0.09137406 0.05054971 0.016064923
000210 f1 a0 3a 3e d0 2a ee 3d 64 44 65 3d 31 a6 43 3b
       0.18225457 0.116292596 0.055973426 0.0029853696
000220 b7 9c b0 bd 52 95 57 3b 44 9a 3f 3b 4f 6b 61 3d
       -0.08623641 0.0032895398 0.0029236237 0.055033978
000230 5a 74 57 bd 91 72 3d bd 4c 29 86 bc 91 ce 30 3c
       -0.052601196 -0.046251837 -0.016377114 0.010791437
000240 b1 3f d8 3a da c9 29 bd 62 f8 26 3b 64 5a 74 bd
       0.0016498474 -0.041452266 0.0025477638 -0.059656516
000250 e4 1c 64 be 0b 68 ec bc 45 28 2e bc 0c 82 e8 b9
       -0.22276646 -0.028858205 -0.010629718 -0.0004434738
000260 ee 07 54 b9 51 e6 8c bd b2 72 d8 3d bb df 04 3c
       -0.0002022085 -0.06879867 0.105687514 0.008109982
000270 80 47 91 bd de 9a 27 b9 b4 cd 18 b9 5f f3 33 bd
       -0.07093716 -0.00015984054 -0.0001457248 -0.04393327
000280 3c d3 5a bd 27 cf 47 b9 0a e4 f3 bd 83 c5 12 3d
       -0.053424105 -0.00019055289 -0.119087294 0.035832893
000290 fd a0 ee 3d d1 d2 73 ba 6e ce 12 bb 0b fc 00 bb
       0.116518 -0.00093011284 -0.0022400874 -0.001968148
0002a0 b2 44 73 bd ab f5 9e b9 ca 6a 3d 3b 3f 68 2d 3d
       -0.059391685 -0.00030319145 0.0028902763 0.042335745
0002b0 0a 01 12 bb 94 6d 86 ba 37 a6 78 bd df 31 b1 ba
       -0.0022278451 -0.0010256045 -0.06070539 -0.0013518891
0002c0 f9 9c b9 bc ea e2 99 bd 9c 15 a0 bd e3 f9 92 3d
       -0.022657858 -0.075139835 -0.07816622 0.07176568
0002d0 ac 6c 9b bd 9d b0 35 3d 5b d3 5c bb 37 ac d8 3c
       -0.07589087 0.044357885 -0.0033695314 0.026449306
0002e0 a0 cf 85 bd 5b 47 95 bc 36 02 cf 3c 42 f9 3f 3d
       -0.06533742 -0.018222502 0.025269609 0.04686857
0002f0 c8 19 56 bb a0 f0 aa ba 9b 5d 90 bd 20 d0 80 3d
       -0.0032669175 -0.0013041683 -0.07049104 0.06289697
000300 22 b3 81 bd 0b 84 07 3e 30 0f 39 be b6 87 32 3d
       -0.06332995 0.13233964 -0.180722 0.043586455
000310 d3 59 08 ba d3 cc f0 bb 64 a7 1e ba 79 37 50 ba
       -0.0005201373 -0.0073486357 -0.0006052165 -0.00079428364
000320 f1 72 c0 3d 14 e9 67 3d 3f 96 88 3c fd 9f 7c bc
       0.09396923 0.056618765 0.016673205 -0.015419004
000330 b7 de ec b9 ee e1 3b bc e4 46 20 3d 70 3e 3d 3e
       -0.00045179363 -0.01146744 0.039130107 0.1848085
000340 74 76 97 bd d8 9f 89 be 9d 20 64 bb f6 7c b6 38
       -0.0739564 -0.26879764 -0.0034809478 8.701712e-05
000350 5c 32 5e 38 6c 14 66 ba 9a 86 f9 38 d7 42 1e 39
       5.2975825e-05 -0.0008776847 0.00011898317 0.00015092954
000360 9d b4 77 3a 30 21 f6 3c ea e6 ef 3c f4 99 51 3d
       0.0009449216 0.030045122 0.029284913 0.05117221
000370 66 6d 7b bc 8d 12 99 3d 38 3c 10 3e 50 91 16 3e
       -0.015345907 0.074742414 0.14085472 0.1470387
000380 19 c3 42 3e 37 ed 8d bc 2a 5d 92 bd 51 cd a4 ba
       0.19019736 -0.017325027 -0.07146676 -0.0012573396
000390 f7 32 95 3d 0f 14 c6 bd 56 fc 26 3d cd 1a 0c ba
       0.072851114 -0.096717946 0.04076799 -0.000534457
0003a0 80 48 cf 3c ae ce 30 bd d4 19 3b bd 19 37 c4 3d
       0.025303125 -0.043165855 -0.04567893 0.095808215
0003b0 7f 1f ce 3d 31 51 63 3d 53 7c f5 3d f8 0f 8a be
       0.10064601 0.055497352 0.119866036 -0.26965308
0003c0 89 78 86 ba 91 ef 91 bd b8 7b 23 bb ec 7c 0f ba
       -0.0010259311 -0.07125772 -0.0024945568 -0.0005473632
0003d0 4f b8 c3 bc a5 2f d1 3d c8 98 d2 3d ea a1 03 3d
       -0.023891596 0.102141656 0.10283047 0.032136835
0003e0 dc 8a 22 bb 9d 7e e3 38 60 61 d2 38 4d 12 25 bb
       -0.0024802005 0.00010847787 0.00010031718 -0.002518791
0003f0 3d 25 9f 3d 2c 09 94 3d ab 64 dd bd 37 80 cc bd
       0.077707745 0.07228312 -0.108102165 -0.099853925

feature_extractor.0.bias f4 [32]
000000 e3 49 bf 3d ff c6 b3 3d fa a9 20 34 45 e1 0d b9
       0.09340265 0.0877819 1.4962998e-07 -0.00013530727
000010 6d ba b4 3d 33 49 9e 3b 11 96 0b b6 2d 79 c8 bb
       0.088246204 0.0048305034 -2.0799964e-06 -0.006117961
000020 7c 2a ad 36 9c a4 8e bb a0 44 1d 34 f6 3b d2 bd
       5.1607476e-06 -0.004353119 1.464673e-07 -0.10265343
000030 f5 8a 8a bb 05 c7 c1 3d 1c 4b b9 bd 2b ad 38 3a
       -0.0042279908 0.09461788 -0.09047529 0.0007044847
000040 f9 9f 34 bd 2f eb 81 3d f7 79 1e 3b dc 53 2f 3b
       -0.044097874 0.06343686 0.0024181583 0.0026752865
000050 35 01 c7 3d b0 dd 4a 3b 06 0e 3d b6 d1 9a 24 bd
       0.09717027 0.003095489 -2.8171357e-06 -0.040186707
000060 28 d1 ad 3d 36 3a 36 bd 7b 3f 2c 38 a1 3e dd 3b
       0.08487159 -0.044489108 4.1067116e-05 0.0067518507
000070 55 cd d6 3d f0 c8 49 b6 ce 70 8f 3d c7 d3 af ba
       0.10488383 -3.0068295e-06 0.07003938 -0.0013414555

feature_extractor.1.weight f4 [32]
000000 a0 90 80 3f ec 63 7b 3f 86 8a 77 3f b7 a9 78 3f
       1.0044136 0.98199344 0.96695745 0.97133964
000010 67 ac 75 3f 7e 78 7b 3f ef 10 7c 3f 8e d3 75 3f
       0.9596619 0.9823073 0.9846334 0.9602593
000020 3a be 74 3f 80 b8 80 3f 8e 91 7a 3f 4f 87 76 3f
       0.9560276 1.0056305 0.9787835 0.96300215
000030 26 58 81 3f ea 95 79 3f c6 87 78 3f f6 a4 78 3f
       1.0105026 0.97494376 0.97082174 0.9712671
000040 c6 bf 76 3f 98 5c 76 3f 5e 57 7b 3f d9 22 78 3f
       0.96386373 0.96235037 0.98180187 0.96928173
000050 20 4b 78 3f eb 6d 7b 3f 9d d2 78 3f b6 04 7f 3f
       0.9698963 0.98214597 0.9719637 0.99616563
000060 eb 8c 77 3f f0 ed 7a 3f 89 23 7c 3f c4 f5 77 3f
       0.966994 0.98019314 0.9849172 0.96859384
000070 3a 94 78 3f ff b1 75 3f ff 67 79 3f 45 70 76 3f
       0.97101176 0.95974725 0.9742431 0.9626506

feature_extractor.1.bias f4 [32]
000000 31 b1 73 3d 4f 51 71 bc f4 1e ec bc b7 7f 2b bd
       0.059495155 -0.014728858 -0.028823353 -0.041869845
000010 64 f5 00 bd 33 d7 d6 3c bd 17 87 3d bb 6a c6 3c
       -0.031484023 0.026225662 0.065963246 0.024220815
000020 ef 3c 00 bd 8d 6e 05 3d f7 84 03 3c 10 aa a1 3b
       -0.03130811 0.032576133 0.008027307 0.004933603
000030 79 3a 4e 3d 43 b9 4a 3d 58 c5 85 bd ee 53 5b 3d
       0.050348733 0.049493086 -0.06531781 0.05354684
000040 b5 89 c6 bb 35 2d b0 3c 7a cb 0c 3d 99 14 d7 3c
       -0.0060588964 0.021505931 0.034373738 0.026254939
000050 5d a6 19 3d 5c a6 8a 3d c5 d5 cf bc 72 d9 d4 3c
       0.037512172 0.06770012 -0.025370488 0.025982592
000060 78 0b 86 bb 6d 39 77 3b e0 c8 15 bd e9 7d 76 3b
       -0.0040907227 0.0037723437 -0.036568522 0.003761167
000070 9c 06 9d 3d 1d 5e f7 3c f4 10 19 bc 5e 8a 59 bd
       0.07667276 0.030196244 -0.009342421 -0.053110473

feature_extractor.1.running_mean f4 [32]
000000 2c ee 4e c8 cc a7 8a 47 ba 07 b5 c7 99 c6 84 c8
       -211896.69 70991.59 -92687.45 -271924.78
000010 a1 ad 6d 48 75 77 0b 47 fd 0d 59 48 92 83 9e 48
       243382.52 35703.457 222263.95 324636.56
000020 45 5c a7 48 00 42 95 c8 1e 5a f7 46 ea c3 a1 c7
       342754.16 -305680.0 31661.059 -82823.83
000030 0c e4 cc c7 a4 be 13 c8 8a 91 e3 48 39 9e b7 c7
       -104904.09 -151290.56 466060.3 -94012.445
000040 5d 08 2d 47 2a 53 29 47 08 f7 ed 48 af 59 2a c7
       44296.363 43347.164 487352.25 -43609.684
000050 9f 75 b6 48 ed 4e 7d c8 55 50 1f 49 05 70 90 47
       373676.97 -259387.7 652549.3 73952.04
000060 80 86 b5 c8 04 96 b0 47 88 22 93 48 d9 1f 65 c8
       -371764.0 90412.03 301332.25 -234623.39
000070 48 95 ac c8 1c 3d 7a c7 a0 0f 6a c8 43 f6 2f 48
       -353450.25 -64061.11 -239678.5 180185.05

feature_extractor.1.running_var f4 [32]
000000 a8 6c 02 52 46 fc 1f 52 d1 51 34 52 12 71 50 52
       1.4004217e+11 1.7178306e+11 1.9361669e+11 2.2381255e+11
000010 48 eb 13 52 14 bb e9 51 bb df 30 52 e0 cb 0d 52
       1.5882689e+11 1.2548325e+11 1.8991695e+11 1.5225271e+11
000020 01 13 f8 51 8e bf f5 51 ef 04 49 51 b0 ad f6 50
       1.3318384e+11 1.3193509e+11 5.39607e+10 3.3108623e+10
000030 7e f3 98 51 7c 4e 48 52 b2 65 4b 52 08 15 0e 52
       8.211502e+10 2.1507755e+11 2.1839613e+11 1.5255955e+11
000040 61 ff 19 51 dc 94 c5 51 c7 40 6b 52 bb 3e f9 51
       4.133841e+10 1.0607575e+11 2.5260102e+11 1.3381241e+11
000050 02 43 73 52 99 a5 e8 51 c1 fe c5 52 25 96 88 51
       2.6120031e+11 1.24901335e+11 4.251913e+11 7.332932e+10
000060 42 3f 1c 52 15 6c c4 51 6c 35 38 52 11 38 ab 51
       1.6776905e+11 1.0545336e+11 1.9779256e+11 9.1922506e+10
000070 b9 8b 87 52 27 a8 ec 4f 8e 0d 70 52 96 97 f9 50
       2.9108237e+11 7.940886e+09 2.5775489e+11 3.3499689e+10

feature_extractor.4.weight f4 [64, 32, 3]
000000 96 b4 bb 3d a0 02 ba 3c 4f 03 2c bd 77 7a 00 bd
       0.091653034 0.02270633 -0.041995343 -0.03136679
000010 0f 02 7d bd 83 c8 6c bd 36 17 a2 bd c1 50 40 bd
       -0.06176954 -0.05780841 -0.079145834 -0.046952013
000020 da 58 8f bd 56 00 bd 3b e0 41 8a bd b1 96 80 bd
       -0.06999369 0.0057678623 -0.06750846 -0.06278742
000030 e6 a6 8e bd a7 65 cf bd ad 08 e9 bc 46 2d 94 3c
       -0.06965427 -0.101268105 -0.02844652 0.018087994
000040 0e ed 55 3d 46 20 64 bc 81 26 ae bd 37 f1 a5 3d
       0.052228026 -0.01392371 -0.08503438 0.08102649
000050 a2 5c 9a 3d 1f 95 37 3d 90 d3 4f bd 9a 1b 0d 3c
       0.075371996 0.044819947 -0.05073887 0.008612538
000060 5d ff 82 bd ef e5 a7 bd a7 1e 26 3d 58 fa 9e 3d
       -0.06396363 -0.08198153 0.040556576 0.07762593
000070 0f 71 09 3d dd 94 74 3d 5b 64 d1 bd a3 be 5d 3d
       0.033555087 0.05971228 -0.102242194 0.054136883
000080 d9 64 e3 bb f9 95 a5 bd ad 54 24 3d 85 95 a6 bd
       -0.006939512 -0.08085246 0.040119816 -0.08133987
000090 f7 b2 72 3d a7 ea b5 3d 13 ad 75 bd 5e 87 34 3d
       0.059252705 0.08882647 -0.05997951 0.04407441
0000a0 de 6e da 3d f7 ab 73 3d c5 8c 6b 3d 9d 42 63 bd
       0.106656775 0.05949017 0.057507295 -0.05548345
0000b0 16 29 11 3d 76 e0 e8 3c 43 78 ba 3d 16 e2 ba bd
       0.035439573 0.028427344 0.09104969 -0.09125154
0000c0 1e c4 02 3d 04 54 ad bd 17 5a d9 bd 2e e5 e1 bd
       0.031925313 -0.0846329 -0.106128864 -0.11030041
0000d0 fc 62 db 38 04 13 bc 3d 67 70 e1 3c 12 fd a0 3d
       0.00010461171 0.091833144 0.027519418 0.07860769
0000e0 17 4f 02 bb c2 02 32 bb 73 72 23 3c 1c 77 b7 3d
       -0.0019883567 -0.0027162288 0.009976017 0.08958265
0000f0 3c 60 88 bd f9 3d c7 bc 32 cd 7e 3d 53 5c 7f bd
       -0.0665898 -0.024321543 0.06220741 -0.062343907
000100 09 08 61 3c 1d 4b 07 3d 91 94 c3 bd 54 e7 4c 3d
       0.013734826 0.033030618 -0.09549821 0.0500253
000110 04 fc cb 3c 4c 4f 95 bd 1f e6 af 3d e3 34 74 bd
       0.024900444 -0.07290515 0.08588814 -0.05962075
000120 c2 3b 79 3d 77 4c 34 3c 21 d5 ec bd 62 bc be 3d
       0.060848005 0.011004559 -0.115640886 0.09313275
000130 64 6e 1b 3d fe bc 16 3c 45 fa 88 3d 77 cd 59 3d
       0.037947074 0.009200333 0.0668836 0.053174462
000140 d2 3e de 39 96 57 93 3c d1 47 8d 3d ec 1b 80 bd
       0.00042389944 0.0179861 0.068984635 -0.06255326
000150 5e 79 06 bc 3d 18 56 3a a8 52 1c bd 5e 86 b8 3d
       -0.008207647 0.0008167064 -0.038164765 0.090100035
000160 be 63 d0 bc 07 d1 12 bd fa 66 11 3c 74 eb 6c bd
       -0.025438186 -0.035843875 0.008874649 -0.057841733
000170 aa 20 e4 bc c8 eb 9a 3d 67 a2 80 3d b0 73 fe bc
       -0.027847607 0.07564503 0.06280976 -0.031061023
000180 32 f6 96 bd b3 b6 a6 3c fc 92 1e bc 54 ed 25 bd
       -0.07371177 0.02035079 -0.0096785985 -0.040509537
000190 1f 6a 9a bd 5d 40 1f bd 81 fa 8f 3d b5 1b 36 bb
       -0.07539772 -0.03887974 0.07030202 -0.002778751
0001a0 29 e9 ad 3d ee 8e ab bd 47 1f e8 bd 8e cd 71 bd
       0.084917374 -0.08376871 -0.11334091 -0.059033923
0001b0 59 d1 a3 bb fc b9 f0 bc 16 21 36 bd 01 a6 4f bd
       -0.0049993214 -0.02938556 -0.044465147 -0.050695423
0001c0 f3 e8 98 bd e9 e3 8a bd 0c c8 35 bd f7 b9 10 3d
       -0.074663065 -0.06781752 -0.044380233 0.0353336
0001d0 51 d7 94 3d f6 0b 86 bd 07 1e ed 3c 75 8e 86 3d
       0.07267631 -0.0654525 0.028944982 0.0657014
0001e0 56 f9 46 bd c7 8e 3e 3d b5 1b 01 bd a2 c6 07 3d
       -0.04857763 0.04652288 -0.031520564 0.033148415
0001f0 71 48 0a bb b7 0e 0c 3d 80 13 ed bd 28 f6 a4 3d
       -0.0021100307 0.03419372 -0.11575985 0.08054763
000200 76 80 a8 3c 27 de 6e 3d 62 4e e9 bd 29 05 3c 3d
       0.020569067 0.05831733 -0.113919035 0.04590336
000210 9e 9f e4 3d d3 9b 17 bd e7 33 97 bd 74 fd ef 3b
       0.11163257 -0.03701384 -0.073829465 0.007323915
000220 6f 59 ee bc 26 d7 cc 3d f8 6b 82 bd 6b 7e 11 bd
       -0.02909538 0.10001974 -0.0636825 -0.035520952
000230 13 d0 76 bc 21 d5 80 3d 6b 9a df bc 7c 10 45 3d
       -0.015064257 0.06290651 -0.027295312 0.048111424
000240 c7 51 60 3d 08 fa 9b 3d 46 3d c3 3d d6 7d 82 3d
       0.05476549 0.07616049 0.09533171 0.063716576
000250 23 46 92 3c 8f 52 a0 3d ab 35 03 bd 5a 9d dc 3c
       0.01785571 0.07828247 -0.032033604 0.0269305
000260 b1 00 ce 3c ed 4d 4f 3b fc 85 98 3d 84 b0 7d bd
       0.025146814 0.003163214 0.074474305 -0.061935917
000270 4c 90 32 bc c9 77 2a ba 4f 09 95 bd ee c9 23 bc
       -0.010898661 -0.0006502835 -0.07277166 -0.009996874
000280 9c 19 b0 bd 93 21 d7 bd ac 59 8b 3d 8b a3 50 bd
       -0.085986346 -0.10504451 0.06804213 -0.050937217
000290 61 97 82 bc 8e 63 5b bd be 57 93 3d cf 95 16 3d
       -0.015941324 -0.05356174 0.0719447 0.036763962
0002a0 4b ff 37 3d c3 ee ac 3d f4 a8 e4 3c 4d fa 88 bd
       0.0449212 0.08443978 0.027912594 -0.06688366
0002b0 41 2b a8 bd 89 95 9b 3d c7 ac a9 bc 2a 3c 73 bb
       -0.08211375 0.07596881 -0.02071227 -0.0037114718
0002c0 53 6a 41 bc 43 0c 7d 3d b1 17 bc 3c b9 c0 09 bd
       -0.011805135 0.06177927 0.022960516 -0.03363106
0002d0 61 02 57 bd 27 c5 bc bd e2 a1 ad bd c1 39 10 3d
       -0.052492503 -0.09217291 -0.08478142 0.03521133
0002e0 79 3a 73 ba 05 91 84 bd b9 32 1d bd 9c c6 cb bd
       -0.00092784275 -0.06472973 -0.03837845 -0.09949991
0002f0 b9 bf 2f bb e6 20 1c bc dd 7d 92 bd 31 58 9c 3d
       -0.0026817156 -0.009529328 -0.07152913 0.07634009
000300 8a f1 91 3d 63 30 8f bd a2 a1 fe bb 3c ea ed 3d
       0.07126148 -0.06991651 -0.007770733 0.11616942
000310 fb 1e 96 3d 7b 46 35 3d 40 67 84 3d 1e 15 4d bd
       0.07330128 0.04425667 0.06465006 -0.050068967
000320 e0 c9 08 3d c4 e8 c8 3d 76 d2 29 3b 4f ce 3e 3d
       0.033395648 0.098100215 0.0025912798 0.04658347
000330 47 ef b8 3d 61 0c f8 3b 97 10 69 3d ca a0 d2 bb
       0.090300135 0.007569835 0.056900587 -0.006427859
000340 ef 8b 9c 3c ee b0 ef bd 10 1a 69 bd 27 46 fa bb
       0.019109694 -0.117036685 -0.05690962 -0.0076377573
000350 75 26 82 bc 6f 7d 44 bd ac fb 21 3a dc 13 2d bd
       -0.015887478 -0.047971185 0.00061791646 -0.042255268
000360 b8 05 ec bc 37 36 1e 3d 02 5a 93 bd 3d 33 ab 3d
       -0.02881132 0.038625922 -0.07194902 0.08359382
000370 66 df 00 bd aa 42 43 bc eb 2b 5a bd b0 53 4e 3c
       -0.03146305 -0.011917749 -0.05326454 0.012593195
000380 d1 40 b9 bd b3 73 b5 bb ab 8e 46 bc 64 7d 90 bd
       -0.09045566 -0.005537474 -0.012118976 -0.07055166
000390 49 b5 84 3d d7 5c 19 bd ed 0b 33 bd 87 9e 6f bd
       0.0647989 -0.037442055 -0.043712545 -0.058500793
0003a0 af ab 11 be 0d 7b 6d 3d 3e 1e 02 bd 18 d4 ed bc
       -0.14225648 0.05797868 -0.031767122 -0.029031798
0003b0 e1 91 d2 3d 2b d5 21 bc 39 4f 22 bd 14 52 93 3d
       0.102817304 -0.009877483 -0.039626334 0.071933895
0003c0 d4 bd 66 bd 38 aa 37 3c e8 bf fe 3c 9c 32 00 bc
       -0.056333378 0.011210017 0.031097367 -0.007824566
0003d0 f5 46 01 bd 5e e0 73 bd fa 3f 32 3d 1f 5d 4a 3d
       -0.03156181 -0.059540145 0.043518044 0.049405213
0003e0 5c f8 14 3d a6 8c c2 bc 70 df 33 bd fc 36 85 bd
       0.036369666 -0.023748707 -0.04391426 -0.06504628
0003f0 6f 8a 3b 3c 7e 12 16 bd eb 4e 38 bd fd 38 ec 3d
       0.011446579 -0.03663873 -0.044997137 0.11534307

feature_extractor.4.bias f4 [64]
000000 3e 14 f9 3a 64 c7 63 38 30 ed 9d 38 89 5d 50 37
       0.0019003225 5.4306714e-05 7.530523e-05 1.2419544e-05
000010 a1 e8 8f 37 4e f1 92 b6 d5 79 99 38 35 a9 12 37
       1.7155255e-05 -4.3792306e-06 7.3183015e-05 8.741675e-06
000020 5c fb 7d b9 f4 db b6 b8 97 d1 e1 b8 77 29 99 b8
       -0.00024221599 -8.719406e-05 -0.00010767875 -7.303332e-05
000030 d8 bb 05 38 f6 2e 80 38 57 24 26 37 ff f2 f6 36
       3.1884614e-05 6.112263e-05 9.902832e-06 7.35966e-06
000040 0a 36 95 b5 2c ce 78 39 00 12 db 36 e1 59 bb b6
       -1.1117093e-06 0.00023727928 6.528804e-06 -5.5834976e-06
000050 9d 9a 2f 38 eb b1 13 bb e8 36 52 b7 c2 2d e0 b7
       4.1867246e-05 -0.0022536467 -1.2529759e-05 -2.6724189e-05
000060 f5 1c 07 38 f8 e4 e7 37 60 05 d1 b9 54 8c 79 ba
       3.2213477e-05 2.7643968e-05 -0.0003986759 -0.0009519507
000070 a2 56 03 b7 64 0d 3d 38 ac b5 5b 37 dd d7 43 b8
       -7.828379e-06 4.5073582e-05 1.3095716e-05 -4.669266e-05
000080 26 f0 04 39 73 d9 2c bb 0a b3 f4 38 15 e0 82 37
       0.00012677963 -0.0026374727 0.00011668175 1.5601554e-05
000090 20 4a 33 36 48 4e 93 38 4f 34 36 37 28 4d 4f 3b
       2.6716225e-06 7.024087e-05 1.0860224e-05 0.0031631682
0000a0 72 7e e4 35 59 58 2b 3a 45 2f 0c b8 12 a7 c0 b4
       1.7024124e-06 0.0006536297 -3.3422624e-05 -3.5884347e-07
0000b0 6e cc c2 b6 95 fb c6 b7 3b fa b4 37 a0 76 56 b6
       -5.8054493e-06 -2.3720591e-05 2.1574195e-05 -3.1957534e-06
0000c0 9b 21 a7 b8 1a ea bf 3a 0c d9 c3 b6 33 46 d7 3a
       -7.96944e-05 0.0014641911 -5.8367204e-06 0.0016424119
0000d0 46 62 b5 37 2c 88 fa b6 9e 28 8b b8 42 c1 c3 38
       2.1622644e-05 -7.466433e-06 -6.635602e-05 9.334322e-05
0000e0 4a ec 0d 37 5a fc 8e 39 ca 54 bb b8 0c 66 c9 3a
       8.45927e-06 0.00027272367 -8.932648e-05 0.0015365495
0000f0 fa 0a 07 bb 30 60 14 3b d8 7e 05 3a e9 d8 c0 b9
       -0.0020605908 0.002264034 0.00050924486 -0.00036782704

feature_extractor.5.weight f4 [64]
000000 e4 46 72 3f ea b9 74 3f 95 6a 72 3f 14 6a 79 3f
       0.9463942 0.9559618 0.9469388 0.9742749
000010 42 40 74 3f f8 db 67 3f ef 1e 73 3f 06 af 70 3f
       0.9541055 0.9057002 0.94969076 0.94017065
000020 8b b7 74 3f 73 0a 7a 3f 25 05 6b 3f 88 f3 74 3f
       0.95592564 0.97672194 0.91804725 0.956841
000030 25 0e 77 3f 25 ec 6b 3f 29 7f 6b 3f 5f 29 6c 3f
       0.9650596 0.921572 0.91990906 0.9225063
000040 81 09 73 3f 0f 29 70 3f 9b 45 79 3f f6 1e 73 3f
       0.94936377 0.9381265 0.97371835 0.9496912
000050 e4 bf 77 3f 70 7b 73 3f 0b 52 76 3f 5a 90 79 3f
       0.96777177 0.95110226 0.9621894 0.9748589
000060 7f 7b 6e 3f 05 75 72 3f b7 2a 75 3f c4 7c 75 3f
       0.9315719 0.9470981 0.957683 0.958935
000070 fd b2 72 3f bc e7 75 3f 8a ba 71 3f 88 4f 7a 3f
       0.94804364 0.96056724 0.9442526 0.97777605
000080 0a 25 80 3f 2f 32 74 3f e2 d3 72 3f 97 d4 73 3f
       1.0011303 0.95389074 0.9485456 0.9524626
000090 1a 22 75 3f b6 7b 71 3f d4 1d 71 3f 63 64 6f 3f
       0.9575516 0.9432939 0.9418614 0.9351255
0000a0 71 26 73 3f 54 61 6d 3f 2f 62 6f 3f 48 f8 72 3f
       0.9498053 0.92726636 0.9350919 0.949101
0000b0 ff 62 76 3f 9e a6 6f 3f c3 42 73 3f 68 05 6e 3f
       0.96244806 0.9361361 0.95023745 0.92977
0000c0 c8 74 75 3f 84 8c 77 3f 5f fb 74 3f 14 37 72 3f
       0.9588132 0.96698785 0.9569606 0.9461529
0000d0 a0 1f 79 3f 61 a0 70 3f e5 43 7a 3f ba fe 77 3f
       0.9731388 0.9399472 0.9775985 0.96873057
0000e0 09 2b 73 3f 68 ad 82 3f 33 0c 7f 3f 2c 6e 79 3f
       0.9498754 1.0209169 0.9962799 0.97433734
0000f0 c2 20 7b 3f 65 2d 76 3f 32 a7 65 3f ec 63 6f 3f
       0.9809686 0.96163017 0.89708245 0.93511844

feature_extractor.5.bias f4 [64]
000000 68 14 3b 3c b2 b2 f7 bb f4 45 74 3c a1 63 b8 3b
       0.011418439 -0.007559144 0.014909256 0.005627111
000010 1e d3 ae 3c b7 41 6b bb 5c a5 0b bc 60 58 2c bd
       0.021340903 -0.0035897323 -0.0085233115 -0.04207647
000020 fb 4e 38 bd 44 e7 04 3d ab c5 eb bc 88 8d 72 bc
       -0.044997197 0.032447115 -0.028780779 -0.0148042515
000030 e0 7c 18 ba 11 d5 9d bc 56 48 39 3d 81 0f 0c 3d
       -0.00058169477 -0.019266637 0.045235 0.034194473
000040 87 35 c8 bc f3 16 1b 3d 1b da 26 3c c7 5b 63 bc
       -0.024439586 0.037863683 0.010183836 -0.013876862
000050 5c 94 d3 3a 2e f5 c3 bc b9 c4 04 3d 91 c5 de bc
       0.0016142237 -0.023920622 0.03241417 -0.027193816
000060 1b 04 03 bd 60 c2 b9 bc ae 40 06 3d f0 a5 3d bd
       -0.031986337 -0.022675693 0.032776527 -0.04630083
000070 65 ef 69 bc 84 a7 94 3d 4f f4 c6 bc 6c d6 73 3a
       -0.0142782675 0.072585136 -0.024286417 0.00093016657
000080 41 9f 97 bb b3 03 bb bc 12 f1 7e 3c b5 ad 29 bc
       -0.004627139 -0.022828912 0.015560405 -0.010356356
000090 91 5b 2b bd 5a b0 2d bc 30 0b 11 bb df 21 e4 3b
       -0.04183537 -0.0106011275 -0.0022131912 0.0069620456
0000a0 d5 57 db bc 80 7f 3d bd 2f d1 0d 3d 7b ff 4d bc
       -0.02677528 -0.04626417 0.03462332 -0.012573118
0000b0 8f 75 d5 3a 2f c4 ff 3c 29 93 a0 39 38 3c bf bc
       0.0016285646 0.031221477 0.0003062722 -0.023344144
0000c0 5e 3f 22 bc 0f 8b cb bc a3 35 52 3b d9 c8 09 bd
       -0.009902803 -0.024846582 0.0032075427 -0.03363881
0000d0 96 3b f5 3c 6c 9a ce bc 6e e7 05 bc 11 81 ba 3c
       0.02993564 -0.025220118 -0.008172853 0.022766622
0000e0 92 83 8d bc 35 64 cd 3b e0 84 f2 3c c2 1b b3 bc
       -0.017274652 0.006268049 0.029604375 -0.021863822
0000f0 1b 36 ae bb 00 8b 7e bc 2e 05 1f 3d 6e ff c1 bc
       -0.0053165085 -0.01553607 0.0388233 -0.023681369

feature_extractor.5.running_mean f4 [64]
000000 1b 43 28 3c 54 74 48 be 20 23 15 be 64 aa 47 be
       0.010269905 -0.19575626 -0.1456418 -0.19498593
000010 14 2b 28 3e 85 c6 35 be c3 f7 59 bd b7 88 9c 3e
       0.16422683 -0.1775151 -0.0532148 0.30573055
000020 94 6e 8d 3c 20 42 50 be 10 d1 be 3c 00 96 8b 3c
       0.017264642 -0.20337725 0.023293048 0.017039299
000030 55 03 21 3e 36 63 2b be 53 6f 9a be 81 0d d5 bd
       0.15723927 -0.16737065 -0.3016306 -0.10402966
000040 92 3b ca 3e ed 90 72 be af 8f 74 be d7 6e 6b 3d
       0.39498574 -0.23688097 -0.23882936 0.057478752
000050 a5 a6 2c be 04 f8 cf 3d 8f c1 55 bd 51 fc da 3d
       -0.16860445 0.10154727 -0.052186545 0.10692657
000060 3a 63 93 3e ba 85 1e 3e 62 83 48 3d f7 50 57 3e
       0.2878664 0.154807 0.04895342 0.2102698
000070 a9 af a6 bd 33 87 dc be 88 4f 04 3e f1 ad ca bd
       -0.08138973 -0.430719 0.12920964 -0.09896458
000080 aa 2f 1a 3e 8f 09 37 3c b6 fd 1e be ae 8e 4d 3e
       0.15057245 0.011171713 -0.1552647 0.20073959
000090 fb 5e a5 bc 2f 33 64 bd 29 a3 4b 3e 02 51 40 bd
       -0.020186892 -0.055712875 0.1988646 -0.046952255
0000a0 55 6b 83 3e 2c 75 17 be 17 5a bd bd e6 f9 9e 3e
       0.25667825 -0.14790791 -0.09245699 0.31050032
0000b0 2e 9c 34 3d 78 d4 f3 bd 41 82 1c be 14 23 f8 bb
       0.044094257 -0.119057596 -0.15284063 -0.007572541
0000c0 3c c4 a9 be 64 43 52 be c7 60 0a bd b0 64 d2 3c
       -0.33157527 -0.2053352 -0.0337837 0.025682777
0000d0 4f 16 24 3d ac ba 0e 3e 12 8c 5c be f6 02 f6 3d
       0.040060338 0.13938397 -0.21537808 0.120122835
0000e0 ff e8 be 3e 34 34 6b be 98 31 d6 bc 09 82 88 3d
       0.37287137 -0.22969133 -0.026146695 0.06665427
0000f0 6b 5c 98 3d c8 93 63 be 1b 28 d2 be 3e 32 46 bd
       0.07439502 -0.22224343 -0.41046223 -0.04838776

feature_extractor.5.running_var f4 [64]
000000 64 73 bb 3d 46 b4 f6 3d fa fb 25 3e a5 7e 5a 3e
       0.091528684 0.12046103 0.16209403 0.21337374
000010 ea 95 5e 3d d6 42 07 3f 9f 43 4a 3e cf e2 cd 3e
       0.054342188 0.5283636 0.19752358 0.40212104
000020 4f eb 3b 3e 44 c2 a0 3d 40 65 33 3e 67 46 87 3e
       0.18351482 0.07849553 0.17519093 0.264209
000030 25 65 9c 3d 62 c1 c3 3e 4c 34 17 3f 9e 30 0c 3e
       0.07636479 0.38233477 0.59064174 0.13690421
000040 65 e6 18 3f a4 6e 1b 3f ab 77 4c 3e e2 2f c2 3e
       0.59726554 0.607157 0.19967525 0.37927157
000050 f0 1b 8a 3e 7f 9f d3 3e c8 6b 69 3e ae aa 21 3d
       0.2697444 0.41332623 0.22795022 0.039469413
000060 a0 ba 19 3f 08 f5 4a 3e 35 45 48 3e 13 a5 81 3e
       0.6005039 0.19820035 0.1955765 0.25321254
000070 51 f6 ab 3e a6 1e 24 3f 2b c9 af 3e 04 4b 4b 3e
       0.33586362 0.64109266 0.34333166 0.19852835
000080 74 45 a9 3d 87 07 a1 3d 4e 71 9a 3d a5 dc e0 3e
       0.082652 0.07862764 0.075411424 0.43918338
000090 e1 5e 65 3e 39 84 07 3e e9 94 7e 3e 7e 4e b4 3d
       0.22399475 0.13234033 0.24861492 0.08804034
0000a0 a4 23 c2 3d 6a ad 02 3f c6 f7 4a 3e 43 ef 99 3e
       0.09479454 0.5104586 0.1982108 0.30065355
0000b0 96 6b 34 3e 3f 0d 17 3e 52 0a b7 3e 24 e4 07 3f
       0.17619166 0.14751147 0.3575006 0.5308249
0000c0 d3 a6 74 3d bc cd 80 3e eb 7b e0 3d ec 67 af 3e
       0.05972941 0.25156963 0.109611355 0.34258974
0000d0 0b 15 71 3d dd 48 94 3e 09 ca a6 3d e6 4f 80 3d
       0.05885796 0.2896184 0.08144004 0.062652394
0000e0 d7 3d 21 3e 04 04 1f 3d 0f f1 28 3d 3f 0c 48 3d
       0.15746246 0.03882219 0.041245516 0.048839804
0000f0 b1 1a 95 3d 27 7a 34 3f b6 0f 5c 3f db ab 8a 3e
       0.072804816 0.7049889 0.85961473 0.2708424

feature_extractor.8.weight f4 [128, 64, 3]
000000 98 68 b5 bc 17 b5 7d bd 6a 77 46 bd 15 c4 32 bd
       -0.0221446 -0.06194028 -0.048453726 -0.04364403
000010 4d 4a 80 3c 91 d3 31 3d 27 2e 7a 3c ee d6 93 bc
       0.01566043 0.043414656 0.015269793 -0.018046822
000020 af 95 d2 3c 52 6c 17 bd 4f af 22 3d 69 af 49 3d
       0.02570614 -0.036968537 0.03971797 0.04923955
000030 83 bd 9b bc 38 48 63 3d 5d 7c 0c bd 74 cb be 3c
       -0.019011265 0.055488795 -0.03429829 0.023290373
000040 56 e2 a8 bc 53 07 4d bd 91 1c 07 3d 26 e2 8c 3c
       -0.020615738 -0.050055813 0.032986227 0.01719768
000050 f0 13 a7 3d bd 91 98 bc 40 f6 1d bd 1b 67 96 bc
       0.081581 -0.01862418 -0.03856492 -0.018359711
000060 0f 19 9c bd 29 a0 0e bd f1 d7 55 3d 89 2a 45 3d
       -0.07621967 -0.03482071 0.05220789 0.048136268
000070 c1 03 ca bb 51 e0 87 3d 8d e7 5a bd 4a 0f 83 bd
       -0.0061649983 0.06634582 -0.05344348 -0.063994005
000080 14 1a 15 bc 46 2f 86 bd b9 48 c6 bb 68 8f 5c bc
       -0.009100456 -0.065519854 -0.0060511497 -0.013461925
000090 37 3e 75 ba 40 28 5f bd be f7 84 3d ca cb 92 3d
       -0.0009355279 -0.054481745 0.064925656 0.07167776
0000a0 b7 44 ce bb 0b 00 42 bd 43 14 42 3c 74 4b 03 3d
       -0.0062948125 -0.047363322 0.011845651 0.03205438
0000b0 aa 31 01 bd b2 b3 1d 3d 9b 2d a0 3b 9a 06 09 3d
       -0.031541504 0.03850145 0.004888249 0.03345356
0000c0 01 43 2a bc 6b 8c 87 3d be 47 99 3d 8a d4 3e ba
       -0.010391952 0.066185795 0.07484387 -0.00072795956
0000d0 2c 68 16 3c a9 9d 87 3d 7d 98 1e 3d 95 22 09 3c
       0.00918011 0.06621868 0.038719643 0.008370061
0000e0 08 6c f3 3c 24 32 ef bc 36 0d e9 bc 03 2f 3d 3d
       0.0297146 -0.029198714 -0.028448682 0.046187412
0000f0 ad b0 0a bd 06 6b 75 bc 01 dc 3b bd 21 b4 22 bc
       -0.033859897 -0.01497913 -0.04586411 -0.009930641
000100 a1 f0 7d bd 10 4b 49 3d 31 5b 77 3d f7 53 b0 bc
       -0.06199706 0.04914385 0.0603897 -0.021524413
000110 15 f3 48 3d 9f fe c4 bb c8 7b af 3c d1 fc a7 3c
       0.049059946 -0.0060117985 0.021421328 0.020506294
000120 58 3a be bc c0 49 f3 3c 18 0c 72 bd 0c e2 b8 bc
       -0.02322118 0.029698253 -0.059093565 -0.022568725
000130 63 fb 1e bd b5 c2 2b bc 36 20 32 3d 10 8d d8 bc
       -0.03881396 -0.0104834335 0.04348775 -0.026434451
000140 01 4c 7c bc ad 83 92 bd 68 54 11 bd 19 57 d8 bb
       -0.01539898 -0.071540214 -0.035480887 -0.0066021797
000150 fb 1e f7 bc 0c f0 43 3d ad 52 12 bd 41 60 83 bb
       -0.03016614 0.04783635 -0.035723377 -0.004009277
000160 c5 06 39 3d 01 a7 56 3d e4 b5 9b bb 28 e4 e4 3c
       0.04517247 0.05240536 -0.0047519077 0.027940825
000170 91 d8 43 3c 19 1d b7 bc 43 a2 45 3d fb 68 55 bd
       0.011953489 -0.022352742 0.048250448 -0.05210207
000180 8c ab 8a bd 72 3e 11 3d 4d 3e 10 bd d9 de 0c 3d
       -0.06771001 0.035459943 -0.035215665 0.03439221
000190 9d 1d 21 bd cc 79 ea bc 4c 11 2c bd b2 35 45 3d
       -0.039334882 -0.02862253 -0.042008683 0.04814691
0001a0 a9 d7 9d bd 42 74 ba bc 6b 9f 45 bd 5e 54 1a bd
       -0.077071495 -0.022760514 -0.048247736 -0.037678115
0001b0 6c 6b 23 3d 66 81 a1 bd 61 34 7e 3d 96 ab 5a bd
       0.039897367 -0.07886009 0.06206167 -0.053386293
0001c0 8b da 0e bd 3b fc 38 bc 61 a9 35 bd aa 75 5d bd
       -0.034876388 -0.011290605 -0.044350985 -0.05406729
0001d0 19 b3 12 bc 1b cd ac 3c 37 30 be 3c 71 1f 9e 3c
       -0.008953833 0.021093896 0.02321635 0.019302102
0001e0 9b 94 a1 3c ca f2 c2 3c 57 b1 84 bd 73 c5 64 bd
       0.01972418 0.023797411 -0.064791374 -0.055852365
0001f0 37 1b 9c 3c 22 60 28 bd e8 38 b8 bc 4b d5 54 bd
       0.019055946 -0.041107304 -0.022488073 -0.051961225
000200 5d dd 48 3d 29 74 1e 3c 55 78 90 3c 83 d0 38 3d
       0.049039233 0.009671249 0.017635504 0.045120727
000210 28 7b 6d 3d 08 98 37 3d 1f 5b 86 3d ae a4 53 3b
       0.05797878 0.044822723 0.06560349 0.0032294202
000220 af b8 96 bc ef 38 8a bd b7 af 59 bd 3d 3c 0a bc
       -0.01839861 -0.067491405 -0.05314609 -0.0084372135
000230 06 8d 9c 3d d2 1e 12 bd 0c be 03 bd d0 69 f1 bc
       0.076440856 -0.035673924 -0.032163665 -0.0294694
000240 b9 a4 d9 3c 9f 2c 06 3d 3a 8d 32 3d 67 aa e2 3c
       0.026567804 0.032757398 0.043591715 0.027669145
000250 df 4d fc 3c c3 4c 12 3c ae 28 2d bc b0 ea 3d 3d
       0.03079885 0.008929434 -0.010568781 0.046366394
000260 9e 18 6e 3d e3 c5 4e 3b f3 75 08 3c d2 ce 2d 3d
       0.058128946 0.0031551055 0.008328903 0.042433567
000270 ef 71 dc 3c af 66 97 3b 7d 86 ce 3c 88 8b 33 bd
       0.026909797 0.004620395 0.025210613 -0.04383424
000280 0c a2 31 bd 25 21 b0 3d f6 ef 1c 3c c2 ec 28 3d
       -0.04336743 0.08600072 0.0095786955 0.041241415
000290 ee 93 c1 3d 9e 3c f5 bc 14 90 d0 bc 63 d3 47 bd
       0.094520435 -0.029936131 -0.025459327 -0.04878558
0002a0 d0 dd 9c 3c 27 77 55 3c 51 0e a5 bc df c4 51 bd
       0.019148737 0.013028896 -0.020148428 -0.05121314
0002b0 b6 d8 f7 3c e4 19 6d 3d 2b a8 9f 3c 41 e7 15 bd
       0.030254703 0.05788602 0.019489368 -0.036597494
0002c0 73 af bd 3c 1b f2 f0 3b 6d ee 48 bd 37 80 3b 3d
       0.02315495 0.00735308 -0.049055506 0.045776572
0002d0 ac 30 3c 3d 2e 9f 22 bd b0 36 85 3d 98 aa 54 bd
       0.045944855 -0.039702587 0.065045714 -0.051920503
0002e0 da 09 56 3d 5c 57 a8 3c 67 49 70 bb 16 a6 de 3c
       0.05225549 0.020549469 -0.0036664845 0.027178805
0002f0 87 f2 3d bd eb b8 a6 bc 09 20 89 bd 91 7a ef 3c
       -0.04637387 -0.020351848 -0.06695563 0.029233249
000300 46 5e d3 3c 72 8a 73 3d cb da 55 3d c3 11 5b bd
       0.025801789 0.059458204 0.05221061 -0.053483736
000310 73 93 37 3d 39 38 57 3d cb 37 22 bd b8 4b 4e bc
       0.044818353 0.052543852 -0.03960399 -0.012591295
000320 56 4d c6 bd a9 01 08 3d 2c 50 e5 bc 1c 81 12 3d
       -0.096827194 0.03320471 -0.02799233 0.03576766
000330 05 27 14 3d c0 d1 3f 3d 4d 85 4a 3d bb 25 db 3c
       0.036170024 0.046830893 0.04944353 0.02675139
000340 21 32 19 3d 4e 25 07 bc 4c b4 90 3d 3c ab a1 bd
       0.037401322 -0.00824864 0.07065639 -0.078939885
000350 92 94 dc ba 58 ec 12 bd 41 07 0d bd fb 95 45 bc
       -0.0016828945 -0.035869926 -0.034430746 -0.012059684
000360 c9 b5 f8 3a ef a9 b3 bb af bd 5c bd 46 b1 6b 3d
       0.0018975075 -0.005482904 -0.053891834 0.057542108
000370 b3 2f c7 3b c0 9f 55 3b 17 b5 d5 3c cd 81 27 bd
       0.0060786842 0.003259644 0.026087327 -0.040895272
000380 90 4f 54 bd 2d f6 fc bc ec 8a cb 3c b9 98 7f 3c
       -0.05183369 -0.030879105 0.024846517 0.015600377
000390 9e ba 8c 3c 70 1d b4 3b 84 d1 b1 bc 6e f0 ea 3c
       0.01717883 0.0054966733 -0.02170635 0.028679099
0003a0 53 43 d3 3c 31 58 39 3d 0a 6b 0c 3d 1b a4 c1 3c
       0.025788939 0.04525012 0.034281768 0.023637822
0003b0 45 ab 82 bd 8d ba 0a bd 59 70 55 bd 15 bd 04 bb
       -0.06380323 -0.033869315 -0.052109096 -0.0020254303
0003c0 be f2 1b 3d bb bc 7f bd 9a 7e 35 3d 31 35 d1 bb
       0.038073294 -0.062435847 0.04431019 -0.0063845147
0003d0 d9 48 2d bd ae 37 3f 3d 02 23 89 3c d3 3e f1 bc
       -0.0423058 0.04668396 0.016740326 -0.029448902
0003e0 d0 bf 0c 3d 51 f2 0a bd 69 8b 66 3d 19 8e 36 bc
       0.034362614 -0.033922497 0.056285296 -0.011142277
0003f0 67 55 1b bd cd 72 ec bc 1a 8d 47 3d 05 f1 47 bd
       -0.037923243 -0.028863335 0.04871855 -0.04881384

feature_extractor.8.bias f4 [128]
000000 e7 f7 42 36 2c 3e 91 b4 7a 86 3f b6 76 b2 14 b7
       2.905255e-06 -2.705359e-07 -2.8539494e-06 -8.863039e-06
000010 9f 1f 19 b6 e6 79 0d b8 c2 12 01 38 b6 b1 4a b7
       -2.2817183e-06 -3.3730546e-05 3.0773466e-05 -1.2081515e-05
000020 8c 53 d1 35 20 4c 9d b5 c3 e4 24 b6 c4 f6 53 36
       1.5596029e-06 -1.1719567e-06 -2.4571061e-06 3.1585087e-06
000030 6c b2 b0 35 5f 24 9e b6 04 10 84 36 0b ee ed 35
       1.316495e-06 -4.713001e-06 3.935771e-06 1.7727156e-06
000040 e0 a2 49 b5 13 5c 6b b6 30 0e 68 33 1b cc 0b b6
       -7.511535e-07 -3.5071323e-06 5.4029613e-08 -2.083142e-06
000050 fe 8a 06 b6 39 6c 81 b8 3f 97 28 b8 56 0d 9f 36
       -2.004846e-06 -6.1713574e-05 -4.019518e-05 4.7401218e-06
000060 ea 2a d7 36 cc 9b ae 34 2b 15 f4 b6 b1 65 1b b6
       6.412495e-06 3.2523383e-07 -7.274231e-06 -2.3155992e-06
000070 5f 75 2b 38 0f d6 25 37 96 df df b4 4d a3 cf b7
       4.0878887e-05 9.884606e-06 -4.1699667e-07 -2.4752366e-05
000080 36 80 a1 35 79 a7 1d b8 2c 34 68 36 cc 94 56 b6
       1.2032749e-06 -3.7587688e-05 3.4601062e-06 -3.1975096e-06
000090 0e eb 19 38 df 01 2a b8 53 26 6e b7 77 b1 66 36
       3.6696954e-05 -4.05329e-05 -1.41948285e-05 3.437597e-06
0000a0 34 e3 1b 37 7c 53 23 b7 2c ca 3d 37 2d d5 0c b7
       9.29162e-06 -9.734995e-06 1.131235e-05 -8.394284e-06
0000b0 76 c1 b8 b6 23 ae 5a 38 4f 48 3b b6 a5 09 0b 38
       -5.506149e-06 5.2137428e-05 -2.790726e-06 3.3149165e-05
0000c0 14 40 c3 b6 9a 6d 61 b5 0a 94 df b6 31 8b 29 35
       -5.8189125e-06 -8.3978523e-07 -6.663152e-06 6.3159956e-07
0000d0 8b 88 da 36 71 14 d0 34 68 b0 cc b6 ca 1b cb 37
       6.512802e-06 3.8757892e-07 -6.10021e-06 2.4212426e-05
0000e0 08 5b 97 35 f7 c6 87 b7 5c e6 75 b6 a5 3d 3c b6
       1.127687e-06 -1.6185904e-05 -3.6641932e-06 -2.8050065e-06
0000f0 5b 4b 38 b7 e7 c7 2e 37 5c 17 07 36 58 8d 07 38
       -1.09848e-05 1.0417752e-05 2.0130165e-06 3.2318145e-05
000100 a7 a9 78 b6 00 b6 7e 35 10 85 e4 35 46 a9 bb 36
       -3.705363e-06 9.488722e-07 1.702605e-06 5.5927403e-06
000110 62 13 8d 37 20 0f 42 b8 60 b4 5e b7 28 04 a3 b4
       1.6817536e-05 -4.626729e-05 -1.3274228e-05 -3.036414e-07
000120 b7 b2 8a b7 30 53 2f 38 8b bb ad b6 b7 39 58 36
       -1.6534103e-05 4.1800726e-05 -5.1776346e-06 3.2220103e-06
000130 4c 14 0e 37 dc 59 a1 35 b3 e7 50 37 68 3a 34 b8
       8.468585e-06 1.2021587e-06 1.2451713e-05 -4.296974e-05
000140 cf a3 43 b7 d1 e8 2e b8 f0 9d 1a b8 f6 9f 94 36
       -1.1661045e-05 -4.170166e-05 -3.6863552e-05 4.4293656e-06
000150 dc 87 8a b5 6f fe cd 37 66 a6 39 b8 a2 bc b1 b6
       -1.0321342e-06 2.4556384e-05 -4.4262408e-05 -5.296971e-06
000160 81 3a 13 37 2a fc bd 36 68 26 ef b7 be 5e 2a 37
       8.775504e-06 5.6619947e-06 -2.8508905e-05 1.01548485e-05
000170 43 26 e4 35 2b cd 84 36 12 28 ca b5 b4 01 71 36
       1.6998459e-06 3.9577913e-06 -1.5061835e-06 3.591279e-06
000180 9f 9d b2 37 7a 65 2a 38 f7 f2 20 37 16 cd ad b7
       2.1292652e-05 4.0625666e-05 9.593313e-06 -2.0718708e-05
000190 e8 1d e3 b5 63 4d 57 b6 91 e1 94 b7 10 34 7d 37
       -1.6921522e-06 -3.2082542e-06 -1.7748012e-05 1.5092097e-05
0001a0 a4 38 bc b7 5b 17 2d 36 b2 a8 a5 b7 90 51 a2 b6
       -2.2437722e-05 2.5792604e-06 -1.9748088e-05 -4.8374714e-06
0001b0 36 69 6d b6 cc e6 e2 b5 46 1d 32 b8 67 e8 50 37
       -3.5376993e-06 -1.6905483e-06 -4.246577e-05 1.24518765e-05
0001c0 ad 39 38 37 b8 85 d1 37 9e d9 8c 36 20 9f 42 b7
       1.0980683e-05 2.497701e-05 4.197659e-06 -1.160035e-05
0001d0 6a 68 97 35 d4 a5 db 35 14 71 f6 35 e2 aa 41 b7
       1.1280765e-06 1.6365034e-06 1.8361338e-06 -1.1543483e-05
0001e0 6e 40 c8 34 05 9e 9d 36 d0 9d 1f 36 64 af 6a 37
       3.7299782e-07 4.6973605e-06 2.3784705e-06 1.3988323e-05
0001f0 dd 28 46 b7 d4 c2 2f 37 a2 3b 19 b5 d8 e2 f7 36
       -1.1811234e-05 1.0476175e-05 -5.708372e-07 7.3875817e-06

feature_extractor.9.weight f4 [128]
000000 e5 48 72 3f f5 9a 75 3f 8e 80 74 3f b3 f3 7b 3f
       0.9464248 0.9593957 0.9550866 0.9841873
000010 26 d0 7f 3f 12 c0 75 3f 56 a9 79 3f 8e 3f 75 3f
       0.99926984 0.959962 0.9752401 0.958001
000020 3b 68 71 3f ad 97 74 3f 94 9e 6e 3f a1 8b 78 3f
       0.9429967 0.9554394 0.9321072 0.97088057
000030 a3 86 7e 3f e0 20 77 3f 39 94 79 3f 80 da 7a 3f
       0.9942419 0.9653454 0.97491795 0.97989655
000040 4e 51 73 3f 2f 13 77 3f 0d 2a 76 3f 64 50 79 3f
       0.95045936 0.96513647 0.96157914 0.9738829
000050 3e 3c 79 3f 02 38 7f 3f d9 4e 7b 3f 79 4c 75 3f
       0.9735755 0.99694836 0.98167187 0.95819813
000060 64 21 78 3f 6e 06 76 3f f2 2e 79 3f 9c 7e 7a 3f
       0.9692595 0.9610356 0.9733726 0.9784944
000070 4f 95 72 3f a0 2e 70 3f 4c 1d 74 3f 2f 49 70 3f
       0.94759077 0.93821144 0.95357203 0.9386167
000080 53 eb 7d 3f 68 f1 79 3f be e3 74 3f 08 d8 77 3f
       0.991872 0.9763398 0.95660007 0.9681401
000090 f1 4c 7a 3f 33 8c 7a 3f 35 4c 7b 3f f5 5d 77 3f
       0.97773653 0.9787018 0.9816316 0.9662774
0000a0 49 bb 79 3f 18 5b 71 3f 85 a0 7a 3f 9a a0 75 3f
       0.975514 0.94279623 0.97901183 0.95948184
0000b0 d0 5e 78 3f c0 e1 77 3f 50 10 71 3f fa 5a 79 3f
       0.9701967 0.9682884 0.94165516 0.97404444
0000c0 92 cd 76 3f 7d 47 72 3f db b9 78 3f 49 45 77 3f
       0.96407425 0.9464033 0.9715859 0.96590096
0000d0 8b b8 76 3f 94 b5 71 3f 1f 80 6e 3f c3 c3 72 3f
       0.9637534 0.9441769 0.9316425 0.9482996
0000e0 92 9b 7a 3f 00 8a 77 3f 5a b4 75 3f 85 db 74 3f
       0.9789363 0.96694946 0.9597832 0.9564746
0000f0 dd d3 7d 3f 05 df 76 3f e5 8e 7a 3f 17 6d 70 3f
       0.991514 0.9643405 0.9787429 0.9391646
000100 fa d4 71 3f d7 22 78 3f b7 28 72 3f d8 90 71 3f
       0.944656 0.9692816 0.94593376 0.9436164
000110 a4 da 75 3f 6a ca 77 3f fb 3e 81 3f a6 c3 71 3f
       0.96036744 0.96793234 1.0097345 0.9443916
000120 0d b6 7b 3f 89 1d 7a 3f 8b e1 71 3f a3 8c 7f 3f
       0.9832466 0.9770132 0.94484776 0.9982397
000130 ec 4a 7e 3f b6 11 73 3f 63 30 7e 3f 6c d7 74 3f
       0.9933307 0.949489 0.9929258 0.9564121
000140 38 57 7d 3f 20 76 6d 3f 4b 41 76 3f 3a 3e 7b 3f
       0.9896121 0.9275837 0.9619338 0.98141825
000150 49 8b 76 3f e6 9b 7d 3f b3 32 76 3f e4 da 77 3f
       0.9630628 0.9906601 0.9617111 0.96818376
000160 74 6e 72 3f 76 1b 80 3f 37 fe 6d 3f 31 43 74 3f
       0.9469979 1.000838 0.92966026 0.95415026
000170 86 cd 74 3f 97 41 72 3f 91 85 76 3f 8c 95 72 3f
       0.95626104 0.9463133 0.96297556 0.9475944
000180 25 91 77 3f 17 64 76 3f 3f 93 76 3f e2 e4 7f 3f
       0.9670585 0.96246475 0.9631843 0.9995862
000190 46 84 77 3f 21 c5 7b 3f 72 3f 78 3f fe 72 7e 3f
       0.9668621 0.9834767 0.9697181 0.99394214
0001a0 00 d2 79 3f 89 7f 72 3f 1f 57 78 3f dc 19 77 3f
       0.9758606 0.94725853 0.97007936 0.96523833
0001b0 dc 35 6f 3f 0a 94 75 3f 79 a3 80 3f 6b 8d 73 3f
       0.9344156 0.95929015 1.0049888 0.9513766
0001c0 02 2a 79 3f 56 ae 7b 3f 4d 25 73 3f 4f 9a 7b 3f
       0.97329724 0.9831289 0.9497879 0.9828233
0001d0 f4 65 6c 3f ae 51 71 3f ad 44 70 3f 94 9a 7c 3f
       0.9234307 0.9426526 0.9385479 0.9867337
0001e0 6c 19 76 3f 3d da 7b 3f ba 16 78 3f a5 b9 78 3f
       0.9613254 0.9837988 0.9690968 0.9715827
0001f0 93 bf 76 3f dc 25 6e 3f b4 b4 7c 3f 85 11 76 3f
       0.9638607 0.9302652 0.9871323 0.9612048

feature_extractor.9.bias f4 [128]
000000 c3 1d 34 bc ed f5 08 bc dc 9c 18 bc 07 c2 ef 3b
       -0.010993424 -0.0083594145 -0.009314742 0.007316831
000010 1a 66 9c bb 60 ba c1 3b 05 ed 27 3c 7d 93 23 bc
       -0.0047729136 0.00591211 0.010249381 -0.009983894
000020 75 08 09 bc 37 d7 ea bc e6 f3 42 bc 82 61 f3 bb
       -0.008363833 -0.028667076 -0.01189897 -0.0074273953
000030 10 d7 bc bb 5c bd 79 bc 3e 0b a4 bb 8a 4d 1f bc
       -0.005762942 -0.015242901 -0.005006223 -0.009723077
000040 4a 42 4a bc b5 9f 52 bb 59 e9 91 bb 74 51 cc bb
       -0.012344906 -0.003213865 -0.004452866 -0.006235296
000050 5d 5a 71 bc 72 85 c1 b9 09 e2 bb 39 1e 46 68 bc
       -0.014731017 -0.00036911253 0.0003583583 -0.0141768735
000060 ae d0 84 3a f4 b8 ab 3a 59 eb 40 bc 2c 31 a3 bc
       0.0010132992 0.0013101385 -0.011774861 -0.019920908
000070 a4 6c 57 bc 4a c7 d6 bc 43 8f 19 bc 4c 94 24 bd
       -0.013148461 -0.026218075 -0.009372535 -0.04018049
000080 67 76 d8 bb 36 e3 58 3b 20 f6 89 3b 5a e7 47 bc
       -0.0066059115 0.0033094413 0.0042102486 -0.012201155
000090 f0 45 eb bb 7f 76 83 bb 61 7c ca bc 72 a9 8b bb
       -0.007179968 -0.0040119286 -0.024717512 -0.004262143
0000a0 0a 02 5f bc 9d 61 6e bc 48 67 ac 3a ff 98 9a bc
       -0.013611326 -0.01454964 0.0013153339 -0.018871782
0000b0 3e 71 22 3b b4 18 9d 3b 1f 95 50 bb 0d 87 b7 bb
       0.0024786736 0.0047942046 -0.0031827164 -0.005600816
0000c0 09 45 d5 bb 59 49 69 bc 3a c1 a9 bb 8f 4c 1e 3c
       -0.006508474 -0.014238679 -0.005180505 0.009661808
0000d0 1d 54 9b bc 54 9b 25 bc b6 7b 9c bc 87 cf 1f bc
       -0.018961007 -0.010107834 -0.019101959 -0.009754068
0000e0 6c 7e c6 3b 9c a5 aa bb bb 77 b7 bb 6e fd 2e bc
       0.006057551 -0.0052077305 -0.00559899 -0.0106805395
0000f0 b7 2c 23 ba d1 41 96 bc 86 5e d5 bc b4 0c f7 bc
       -0.00062246196 -0.01834193 -0.026046049 -0.030157425
000100 0d d4 ba bb fc e7 46 bc 23 81 a4 bc cf c9 b8 bc
       -0.005701548 -0.01214027 -0.020081108 -0.022557167
000110 61 cd ff bc 28 c4 8b bc 5f af 9f 3c 7f 7e e3 bb
       -0.031225862 -0.017061308 0.019492803 -0.0069425697
000120 e0 c7 a3 3a 4c 80 9f bc d6 99 12 bc b4 95 8f 3b
       0.001249548 -0.019470356 -0.00894781 0.0043818597
000130 a6 40 4c b9 70 11 63 bc 89 09 1d bc 11 43 4c bc
       -0.0001947904 -0.013859138 -0.009584793 -0.012467162
000140 16 90 38 bc 1e 8d 6b bc d2 fa 2c ba 58 89 b9 38
       -0.0112648215 -0.014376907 -0.00065986544 8.84707e-05
000150 54 cd 23 bc 70 99 a1 bb b8 bc 9a bc 83 ff 66 bb
       -0.0099976845 -0.0049316213 -0.018888816 -0.0035247512
000160 81 e5 5c bc 73 b1 28 3c 98 e0 4e bc 43 3a 43 bc
       -0.013482452 0.010296213 -0.0126267895 -0.011915746
000170 47 76 ad bb 6a ef 74 bc c6 fc 1e bb f6 0e 3b bb
       -0.005293641 -0.014949659 -0.0024259551 -0.0028542853
000180 ff de 36 bc 7b de 9f ba 8c cd 44 bc 19 5d 16 3c
       -0.011161565 -0.0012197042 -0.012011897 0.00917747
000190 f5 18 14 bc ae a7 1c bc 39 47 08 bc 83 ff 03 bc
       -0.009039153 -0.009561462 -0.008317762 -0.008056524
0001a0 53 a7 84 3a 79 ca e7 bc 7c 8f 5c bc 8f 04 85 bc
       0.0010120667 -0.028294789 -0.013461944 -0.016237525
0001b0 a6 5c d6 bc a4 78 0f bc de 32 00 3c 73 ad 93 bb
       -0.026167225 -0.00875679 0.007824628 -0.0045067607
0001c0 31 5e 61 bc 7d ca c3 bc 44 4c 19 ba 6d e9 af bc
       -0.013755367 -0.023900265 -0.0005847851 -0.02147361
0001d0 17 44 af bc c1 99 42 bc f5 3f a8 bc a0 1f b7 bb
       -0.021394772 -0.011877478 -0.02053831 -0.005588487
0001e0 9c 2f 46 ba 43 28 61 bc e7 ed 50 bc 18 25 89 bc
       -0.0007560195 -0.013742509 -0.012752033 -0.01674132
0001f0 e5 99 d5 3a 5e 63 cc bc 70 ad 7e 3b f3 a6 52 bc
       0.0016296474 -0.024949726 0.00388607 -0.012857187

feature_extractor.9.running_mean f4 [128]
000000 79 a8 9d 3d 1b b6 ea be db 9f e2 bd ee bf 9c 3c
       0.07698149 -0.4584206 -0.11065646 0.019134488
000010 97 77 67 be 7f b6 ec 3d 8a f6 3c bd dd 78 2b 3e
       -0.22604214 0.11558246 -0.046133555 0.16745324
000020 ca dc 0a bf e4 eb 20 3f 58 4a 96 be 86 ef d1 bd
       -0.5424315 0.6285994 -0.29353595 -0.102507636
000030 a5 75 2d 3e e5 a1 82 3e b5 c3 88 bd ba 32 6d be
       0.16939409 0.2551414 -0.06677953 -0.23163882
000040 a4 76 7b 3e bc 2d b2 3e d7 4c bd be c8 36 7e bd
       0.24556977 0.34800518 -0.36972687 -0.062063962
000050 37 cf 91 bc 48 fd de 3a 8a 74 e2 3d d1 b7 b2 be
       -0.017799003 0.001701274 0.11057384 -0.34905866
000060 bf e2 5c 3d 25 fa 84 bd 6c 19 a5 3e 11 2e 97 3e
       0.05392718 -0.06493024 0.32245958 0.29527333
000070 d9 c9 b4 be 3a 66 55 3e 16 34 9f 3e 56 2e 83 3e
       -0.35310248 0.20839778 0.31094426 0.2562129
000080 20 25 02 be ea d3 47 bb d1 f4 11 bf 2e 21 6b be
       -0.12709475 -0.00304913 -0.57014185 -0.22961876
000090 d4 9d 99 3e 83 83 31 3e b2 8a db 3e 9b 0e a6 be
       0.30003226 0.17335324 0.42879254 -0.32433018
0000a0 f2 77 ef 3c ab 6f c1 be ff e6 b6 3c 10 87 68 be
       0.029232 -0.37780508 0.022326944 -0.22707772
0000b0 e6 ba 8e be ef 87 cc bd 5e 83 08 bf aa a1 27 3c
       -0.27876967 -0.09986865 -0.5332545 0.010231415
0000c0 86 4b 61 bc ca 3e 9c be e8 fa 91 3d 45 33 eb 3d
       -0.013750916 -0.30516654 0.07127935 0.11484388
0000d0 92 b0 af be 8d ce c2 be 4e 5b 07 bf 13 2b 19 bf
       -0.343144 -0.3804821 -0.52873695 -0.5983135
0000e0 29 0e 74 3d 44 86 e1 3e b8 8b c6 be c2 d1 a6 3e
       0.059583817 0.4404775 -0.38778472 0.32581908
0000f0 2c 58 68 3e 8c 11 15 be a4 25 02 3f d1 c0 d4 3e
       0.22689885 -0.14557475 0.50838685 0.41553357
000100 1d b5 a9 be 11 0c 03 3f e8 b4 84 3e 15 f0 6a 3d
       -0.3314599 0.51190287 0.2591927 0.057357866
000110 a5 8a 57 be f9 a0 b8 be 3d c5 b0 3d e0 39 f5 be
       -0.21048982 -0.36060312 0.0863137 -0.47895718
000120 09 72 33 be 9e 16 28 be f3 29 06 bf a9 28 65 bd
       -0.1752397 -0.16414878 -0.5240776 -0.05594698
000130 15 a5 97 be 96 92 1f bf 36 65 3e be 7f e4 75 be
       -0.29618135 -0.6233305 -0.18593296 -0.24012946
000140 bc b4 99 3e b9 81 c1 be 04 cf a2 be ea 4c 65 be
       0.30020702 -0.37794283 -0.31798565 -0.22392622
000150 40 11 c2 3e 32 b8 d0 be ee 9b 1b 3d d2 e0 f9 bd
       0.37903786 -0.4076553 0.037990503 -0.12201084
000160 10 a5 67 be 38 6c 00 3f fe d8 d6 be 89 0e 09 bf
       -0.2262156 0.5016513 -0.41962427 -0.53537804
000170 b2 d0 c9 be 8f 29 f1 be fe 42 b7 be e1 1d b9 bc
       -0.39417034 -0.4710202 -0.35793298 -0.022597255
000180 1f b7 5f 3d 9d ce 08 bf 15 c9 94 bd 6e fd 39 3e
       0.054617997 -0.53440267 -0.07264916 0.18163082
000190 7d a1 68 3e 52 c2 3d 3d d4 d8 46 3e 1c 6b 1a 3f
       0.22717853 0.046327896 0.19418651 0.60319686
0001a0 5a b7 84 bd b1 87 2c bd 4a 63 66 bd ef cb c9 3e
       -0.06480284 -0.042121593 -0.056247033 0.394134
0001b0 a5 61 fd be 49 12 19 bf 98 00 85 bd 72 9c 1e bf
       -0.4948856 -0.59793526 -0.06494254 -0.61957467
0001c0 50 d2 23 3c fb 82 aa 3e 78 6f 1a bf 2c b9 b6 3e
       0.009998873 0.33303055 -0.6032634 0.3568815
0001d0 e7 49 32 bf c9 13 be be 83 8c 95 be c3 20 db 3c
       -0.69644016 -0.3712447 -0.29208764 0.02674902
0001e0 f9 ed 3a 3e 78 3b 10 3f 91 3c 01 3e c1 6c d9 bd
       0.18254842 0.5634074 0.1262076 -0.10616446
0001f0 82 aa b4 bd 24 61 e3 be cf 7f d2 3d 79 b5 f4 bd
       -0.08821584 -0.4441005 0.10278284 -0.11948676
